pretrained_model/pugan/ckpt/ckpt-epoch-60.pth (torch, 401807 bytes, 247 tensors)

feature_extractor.conv_init.0.weight f4 [32, 3, 1]
000000 68 db 9f 3d 62 91 cb bd db 74 34 bf 24 0f 29 bf
       0.0780552 -0.09939839 -0.7049081 -0.6603873
000010 d5 64 13 3d 07 32 4f be c0 4d 68 3e 76 a2 5b 3e
       0.035984833 -0.20233928 0.2268591 0.21448693
000020 23 d3 28 3e 2d 3b ae 3e 4f a3 01 3f 6a 79 cd be
       0.16486792 0.34029523 0.50639814 -0.40131694
000030 0c 88 a9 bd 4a f2 e0 3d f3 16 3e 3f 0b 49 dd be
       -0.08277902 0.10983713 0.7425377 -0.4321979
000040 2f 28 0c 3f c1 a6 dd be 2e 0b fb bd 00 7f 99 3e
       0.54748815 -0.43291286 -0.12257992 0.29979706
000050 56 2b c5 3e 03 2b 72 bc a6 52 17 bf be ae a1 be
       0.38509625 -0.014780763 -0.59110487 -0.3157863
000060 20 27 ce be ca db 6e be eb ab ef 3d eb 1e 35 bf
       -0.40264225 -0.2332603 0.117027126 -0.707503
000070 3b 74 be 3e e2 a4 f6 3e 87 d1 15 bf cc 0d e6 3d
       0.37198052 0.4817267 -0.5852284 0.112331
000080 69 4e 3e be 4d d4 79 3e 6f 6b a2 bb 22 de 1d bf
       -0.18584599 0.24397393 -0.0049566547 -0.6166707
000090 bc e5 c4 3d 5c 78 f5 3e 7c f7 57 be 59 3c 3f bc
       0.09614131 0.4794339 -0.21090502 -0.011672103
0000a0 ae ae a4 3e 84 7a 89 3e 87 79 ac 3e b5 4c 22 be
       0.3216452 0.26851285 0.33686468 -0.15849574
0000b0 77 13 a1 be 43 e1 fa be be 07 6f 3e 90 29 e7 3e
       -0.31460163 -0.48999986 0.23342797 0.45148897
0000c0 09 6f 1a 3f ff 59 db 3e ec 41 34 3d 61 f3 12 bc
       0.60325676 0.428421 0.04400818 -0.008969159
0000d0 8e de 1f bf 04 21 09 bd 2e 46 13 3f 3b 28 ac 3e
       -0.62448967 -0.03347875 0.5752896 0.33624443
0000e0 ef d3 2a be 86 24 af be 48 dd 23 3e fc a0 a5 3e
       -0.16682409 -0.34207553 0.16002381 0.32349384
0000f0 7a 50 04 3f 50 8a 68 be 33 78 03 be 20 61 ef 3e
       0.516853 -0.22709012 -0.12838821 0.46753788
000100 31 5a c0 bd 4f 98 19 3e cf 35 64 3c a0 99 1e 3f
       -0.09392203 0.14999507 0.013928845 0.61953163
000110 21 a8 a9 3e 26 3f a9 be 01 8d 04 bf 68 6b d6 3e
       0.33136085 -0.3305599 -0.51777655 0.4187882
000120 63 35 41 3c 4e cb 41 3f 8d 9f 2c 3d b3 b9 ec be
       0.011792514 0.75700843 0.042144347 -0.46235427
000130 ae e3 a8 be 34 71 16 bd c6 f6 15 bf 9f a4 0d bf
       -0.32986206 -0.036729053 -0.5857967 -0.55329317
000140 30 30 d9 be a4 a6 ee be e2 38 0a bf 3e b8 bf 3e
       -0.42419577 -0.46611512 -0.53993046 0.37445253
000150 85 13 5a be 77 1b 66 be 78 d2 12 3e 0b f4 e4 3e
       -0.21296509 -0.22471415 0.143381 0.4471744
000160 7c ba f9 3e e7 76 a7 be 2e 19 82 3d 55 5a b5 bd
       0.4877509 -0.32707903 0.06352459 -0.0885512
000170 86 9e 19 bf 5f 09 d6 bd 0a c0 16 3f 60 d7 f2 3c
       -0.6000751 -0.10451006 0.5888678 0.029643714

feature_extractor.conv_init.0.bias f4 [32]
000000 40 61 f2 3e 80 31 27 bf fa f2 8d be aa 5f de bd
       0.4733982 -0.65309906 -0.2772444 -0.1085809
000010 fa 92 0d 3f 41 da 0c bf 4b 6c 23 be 6e 91 7e bd
       0.55302393 -0.5502053 -0.15959279 -0.06215041
000020 67 bb 8e be 09 c9 00 3f 51 a0 f5 3e 85 05 05 3f
       -0.27877352 0.50306755 0.47973874 0.5196155
000030 aa 8c a2 3e a7 42 db 3d 6d e8 a0 3e 70 32 ee 3e
       0.31747943 0.10706072 0.31427327 0.46522856
000040 a9 00 b7 be c6 e1 b0 3e 28 e3 8e be d7 20 a8 3e
       -0.3574269 0.3454725 -0.2790768 0.32837555
000050 c6 b3 d0 3e 89 a9 af 3d d5 1c df 3e e6 dd ed 3e
       0.40762156 0.08577258 0.43576685 0.46458358
000060 2e 0d ea 3e d8 fc c7 3e a5 38 07 bf 09 0d 09 3f
       0.4571318 0.39060092 -0.5282081 0.53535515
000070 86 c7 16 be 00 af f7 3e e2 b1 de 3d 7e 55 95 3e
       -0.1472455 0.48375702 0.10873772 0.29166788

feature_extractor.conv_init.1.weight f4 [32]
000000 f8 36 0b 3f a3 1a b8 3e 1a 5c 42 3f f1 51 84 3f
       0.5438075 0.35957822 0.75921786 1.0337507
000010 6c 33 47 3f 52 96 af 3e c9 09 fc 3e 42 58 5e 3f
       0.7781284 0.34294373 0.49226215 0.8685342
000020 0a 5f 83 3f a0 57 c4 3e a6 a7 30 3f 68 a9 be 3e
       1.0263379 0.38348103 0.6900581 0.37238622
000030 13 3c bc 3e 90 d9 c7 3e 30 cc 7c 3f 69 7a 42 3f
       0.36764583 0.39033175 0.98749065 0.75968033
000040 b4 b6 7f 3f 83 83 5c 3f d5 79 83 3f b1 9a 65 3f
       0.9988816 0.8613817 1.0271555 0.89689165
000050 d4 e2 c4 3e 4f 2e 31 3f 73 5e 66 3f ad bc 6e 3f
       0.38454306 0.69211286 0.8998787 0.93256646
000060 07 8d 61 3f 8b 53 7e 3f c9 8e 65 3f 89 2e 84 3f
       0.88105816 0.99346226 0.89671 1.0326701
000070 25 7b 59 3f 08 95 88 3f 70 31 37 3f 16 20 c7 3e
       0.8495353 1.0670481 0.7155981 0.38891667

feature_extractor.conv_init.1.bias f4 [32]
000000 23 92 07 bc 05 ad 0c bf e5 fb 00 bd e3 95 16 3c
       -0.008274588 -0.54951507 -0.031490225 0.009191009
000010 c6 56 90 3c c5 35 e7 be fe 01 1c be dc d2 54 bd
       0.017619502 -0.4515821 -0.15235135 -0.051958904
000020 07 a1 9a bd 7f 8a fe be 87 dd b6 bc a1 da ff be
       -0.07550245 -0.4971504 -0.02232243 -0.49971488
000030 c0 04 1a bf f3 dc 05 bf 9a 71 3a 3d ed e0 43 bd
       -0.601635 -0.52290267 0.045518495 -0.047821928
000040 1f 72 17 bd 9d ef fe bc f2 d7 b0 3d b7 f6 d6 bc
       -0.03697407 -0.031120116 0.08634938 -0.02624069
000050 98 23 00 bf 22 ef e2 3c 17 2b 68 3d 84 3f 66 bc
       -0.5005431 0.027701918 0.05668172 -0.014053229
000060 45 f9 14 3d 3b e7 29 3d 5a cf 14 3d 1b ef c2 bc
       0.036370534 0.041480284 0.03633056 -0.023795655
000070 8f f6 04 bd a1 8d 17 3d 2d ad 57 bc 1e dc ca be
       -0.0324617 0.037000302 -0.013163847 -0.3962106

feature_extractor.conv_init.1.running_mean f4 [32]
000000 fb 5e f2 3e 43 60 27 bf 0e 1d 8e be d7 7c dd bd
       0.4733809 -0.6538126 -0.27756542 -0.10814827
000010 e1 94 0d 3f 82 00 0d bf c9 1e 23 be fb 61 7f bd
       0.55305296 -0.550789 -0.15929712 -0.0623493
000020 aa 46 8f be 60 ad 00 3f 6e f9 f4 3e 95 ec 04 3f
       -0.279836 0.5026455 0.4784655 0.51923496
000030 99 a2 a2 3e 5c 8e db 3d 60 0d a1 3e 00 07 ee 3e
       0.31764677 0.10720512 0.31455517 0.46489716
000040 08 90 b6 be 03 0e b1 3e 64 f7 8e be b6 fa a7 3e
       -0.35656762 0.34581003 -0.2792312 0.32808465
000050 9f da d0 3e 0a d3 b0 3d 0e 71 df 3e c8 c4 ed 3e
       0.40791795 0.086340025 0.4364094 0.46439195
000060 dc 50 ea 3e ef 8e c7 3e 5c 60 07 bf 49 08 09 3f
       0.45764816 0.38976237 -0.5288141 0.5352827
000070 2a 9b 16 be 46 ab f7 3e 1d d0 de 3d 92 a6 95 3e
       -0.14707628 0.4837286 0.10879538 0.29228646

feature_extractor.conv_init.1.running_var f4 [32]
000000 85 ca 70 3d 59 14 63 3d f8 39 69 3c a6 bd 73 3d
       0.058786888 0.055439327 0.014235012 0.059507035
000010 23 ee 85 3d 80 bb a1 3d 7e 42 f0 3c 1a 22 55 3d
       0.065395616 0.07897091 0.029328581 0.052034475
000020 e2 76 d2 3c b8 f0 cd 3d 54 d4 39 3d 0f 62 4c 3d
       0.025691453 0.10055679 0.045368508 0.049898203
000030 29 a3 03 3d 7e e1 a6 3c 5d 76 df 3c b7 76 6a 3d
       0.032138024 0.020371195 0.02727812 0.05724212
000040 2c f0 7c 3d ea a2 38 3d 05 a1 57 3d ba a1 e8 3c
       0.061752483 0.045077242 0.052643795 0.02839743
000050 0f 8c 1f 3d 2f a7 ee 3c 43 46 6a 3d 73 c2 7c 3d
       0.03895193 0.029132454 0.057195913 0.06170888
000060 8b bc 87 3d f0 2b 15 3d 76 ee c1 3d a4 ef 93 3d
       0.066277586 0.036418855 0.09469311 0.07223442
000070 73 2e 54 3c a7 48 78 3d da a9 2e 3d 4f b0 2a 3d
       0.0129505275 0.06061616 0.04264245 0.041672047

feature_extractor.dense_blocks.0.0.dense_layers.0.conv_bottle.0.weight f4 [32, 32, 1]
000000 24 db 56 3d 4e 92 a3 3d 63 d7 79 3d 97 6f ca 3c
       0.052455083 0.0798689 0.060996424 0.024711413
000010 6a 5d 2c be 2a 58 09 3d 79 1a 5d 3e 60 03 bc 3d
       -0.1683251 0.033531345 0.2159213 0.09180331
000020 04 8a c9 be e0 92 a2 be 81 20 69 3d 89 ce f7 bd
       -0.3936311 -0.31752682 0.056915764 -0.1209994
000030 f3 f3 ac be 88 58 f7 bd 64 a3 55 3e 06 5f aa 3d
       -0.33779868 -0.12077433 0.2086311 0.083189055
000040 ac cb 37 3d 41 9e 59 3d fc f6 05 3e ac ce c0 bd
       0.04487197 0.05312944 0.13082498 -0.094144195
000050 da 7a 11 3e 82 7a 0c 3c d5 a2 d7 3d 2c 20 ae be
       0.1420702 0.00857413 0.105291046 -0.3400892
000060 a8 77 25 3c 65 8b 63 be dc 45 4f 3d ff f7 15 be
       0.010099329 -0.22221144 0.050603732 -0.14645384
000070 a4 ae 8c bd f5 20 70 3d 54 a6 66 3e e4 43 a4 bd
       -0.068692476 0.05862518 0.22524387 -0.080207616
000080 43 1d a7 bd 5a 0c 03 be 69 09 40 3a 7e 3d 09 bd
       -0.08159878 -0.1279768 0.0007325621 -0.03350591
000090 98 77 6b 3d c1 12 d0 bd b4 41 19 3e 5b 8e 41 be
       0.0574871 -0.10159827 0.1496647 -0.1890196
0000a0 98 eb 3d be f8 39 12 be 0e 27 00 3e 57 b9 f9 bc
       -0.18546903 -0.14279926 0.12514898 -0.030483885
0000b0 56 68 a9 bc cf 65 4f be 7a 90 5d 3e 8e 86 72 3d
       -0.020679634 -0.2025368 0.21637145 0.059210353
0000c0 b2 e1 38 3c 83 71 e8 bd f2 2a df bd 41 62 2e 3d
       0.011284279 -0.11349776 -0.10896863 0.04257417
0000d0 ce 88 39 be e5 fe 06 3d 09 41 a8 3e b6 b9 f3 3c
       -0.18118593 0.03295793 0.32862118 0.02975164
0000e0 c7 9f 95 3e 79 3a ac be 63 bd 94 bd 62 7c 3c bd
       0.29223463 -0.3363836 -0.07262685 -0.04601706
0000f0 3c 9c d0 bc d9 97 b8 bd c8 26 49 3e b2 a6 6b bc
       -0.025465123 -0.09013338 0.196437 -0.014383005
000100 72 6b 30 be 7b 8b d2 3d 84 7e e0 3d 3f cd 25 3e
       -0.17228487 0.1028051 0.10961631 0.16191576
000110 e4 34 b9 bd e1 c0 13 be 93 ca 39 3d b5 78 09 3e
       -0.09043291 -0.14429046 0.045359205 0.13424952
000120 e0 1b 62 bd a8 7d 79 be 18 b8 68 bd 8b 84 a5 be
       -0.055202365 -0.2436434 -0.05681619 -0.32327685
000130 71 f9 b7 be 49 08 8f bd 3c 28 1f bd b6 f7 b0 bc
       -0.35932496 -0.06984002 -0.03885673 -0.021602493
000140 10 a0 87 3d 44 4c 5c be b0 9a 9f 3d 9d fd 08 be
       0.066223264 -0.21513468 0.07793176 -0.13377996
000150 c7 af f7 3c 89 49 eb 3d 76 c5 1a 3d 3b 10 ab be
       0.030235184 0.11488635 0.03778597 -0.3341082
000160 15 96 e6 3d b4 1f 8a bd 2e 0c 4f be fb 2c b9 bd
       0.112590946 -0.06744328 -0.2021949 -0.090417825
000170 44 38 b2 3d f7 4b cc 3e 9d 95 67 3e 94 14 f7 bc
       0.08702138 0.39901707 0.22615667 -0.03016118
000180 3f 39 75 be 9e b3 24 3e 12 80 d9 3d ee 7d 14 be
       -0.23947619 0.16084144 0.106201306 -0.14501163
000190 75 12 07 3c e6 18 23 be 3a d1 78 bd 30 8f 21 3e
       0.008244147 -0.15927467 -0.06074641 0.15777278
0001a0 7c 86 e7 3d 0a 00 81 be 11 e9 ea bd 14 02 42 be
       0.11304948 -0.25195342 -0.11470235 -0.18946105
0001b0 be 85 6d be 8b 52 9e bc 02 a1 68 bd 23 13 a2 bd
       -0.2319555 -0.019326469 -0.056794174 -0.07913806
0001c0 50 f7 25 3d de 75 d2 bd 7f c9 f0 bd f2 ff ae bd
       0.04051906 -0.10276388 -0.11757182 -0.085449114
0001d0 83 5b bb 3d 21 d5 e9 bd e7 22 34 3e 49 11 2b 3e
       0.09148314 -0.11417604 0.17591439 0.16705813
0001e0 54 cf 8d bd fc 13 1e 3e 38 5f cb 3d c6 39 90 3e
       -0.0692431 0.15437311 0.09930271 0.28169078
0001f0 a8 25 4a 3e e7 2b 9d bc 16 bf 26 be 6e ae 66 3c
       0.19740927 -0.019185973 -0.16283831 0.014079673
000200 72 b9 6f be 28 1a ed bc 06 7e bd 3d 1c 9d b8 bd
       -0.23410586 -0.028943136 0.09252553 -0.09014341
000210 44 c2 e8 3d 01 db be bd 53 d4 e9 3c 2b 1b 4e 3e
       0.11365178 -0.093191154 0.028543627 0.20127551
000220 aa 9a d2 bc bd 10 21 bd 23 c3 1d 3e 4b b6 3d 3c
       -0.025708515 -0.039322603 0.1540647 0.011579107
000230 9a 05 13 3d b8 5b 83 bd 48 d3 dc bd c6 0a ce 3a
       0.035894014 -0.06413978 -0.10782486 0.0015719763
000240 59 7a 62 3c 94 f1 07 3e 5f 34 7f 3d b0 1e 34 3e
       0.013823115 0.13275748 0.062305804 0.17589831
000250 ed 3a 49 bd f8 95 28 be b0 20 70 be bc 43 2c 3e
       -0.04912846 -0.16463459 -0.2344997 0.16822714
000260 55 4b c0 bc b5 31 06 be 08 ce a0 3d f3 8f 22 be
       -0.023473421 -0.13104899 0.07851797 -0.15875225
000270 23 02 3e be dd 5d 64 3e 9d 77 ea 3c 0f b6 4f 3d
       -0.18555503 0.22301431 0.02862149 0.050710734
000280 85 cf 90 bc 3a ca c7 3d 80 79 e2 3b 95 93 ab 3d
       -0.017677078 0.097553685 0.0069114566 0.083777584
000290 3a e3 3b bd 64 95 54 3e 6f f2 af bd d4 b0 a5 3d
       -0.045870997 0.20760113 -0.085911624 0.08090368
0002a0 0f bd 6e 3b b4 a1 80 bd 05 3b 11 3c f8 c2 48 3e
       0.0036428606 -0.062808424 0.008864169 0.19605625
0002b0 e3 5a a3 3e 39 27 8f bd 51 4c 94 3d 23 32 34 be
       0.3190528 -0.06989903 0.07241119 -0.1759725
0002c0 9b 9e cf be 81 8b cb bd 97 d4 9f be ef c5 79 3d
       -0.40550694 -0.09938718 -0.3121688 0.06097978
0002d0 c3 94 57 bd ef 04 97 be 03 e1 8f be 77 28 9e 3d
       -0.052632105 -0.29495952 -0.28101358 0.07722562
0002e0 35 91 72 be e9 15 78 3e 5e c2 ce 3c 43 3b b6 bd
       -0.23688205 0.24227108 0.025239166 -0.08898022
0002f0 6d 10 3d be e3 fc 1e 3d 3a d0 50 3d 87 ce 1a 3d
       -0.18463297 0.03881539 0.05097983 0.037794616
000300 6f 10 95 bd d5 c6 ac 3d 4e 99 76 3d d1 79 30 3e
       -0.07278525 0.08436362 0.060204796 0.1723397
000310 df 55 af be ca b9 50 be 9c 72 48 be d6 88 af 3c
       -0.34245202 -0.20383373 -0.1957497 0.021427553
000320 4b 64 34 bd 4c 75 14 be ba 3d 00 bc 22 f1 1c be
       -0.04404096 -0.1449787 -0.007827217 -0.1532636
000330 8e fb 75 bc a3 2c d6 bd 9e f9 c9 bc 6b 15 0d be
       -0.015013589 -0.104577325 -0.02465516 -0.13777702
000340 a2 3e 6a 3d 99 0d e5 3d 99 5d ce bc 48 24 be bd
       0.057188638 0.11184234 -0.025191115 -0.09284264
000350 19 46 ae be 62 62 11 3e 15 fb a2 3e 02 73 52 3e
       -0.34037855 0.14197686 0.31832185 0.20551684
000360 84 44 8d 3e f6 b4 f5 3d ef f9 f5 3d 67 d2 4b 3e
       0.27591336 0.11997406 0.12010562 0.19904481
000370 cf 94 c1 3d 95 46 28 3e 3d 16 49 bc a4 ea 79 bd
       0.09452211 0.16433175 -0.012273368 -0.061014786
000380 62 c3 f1 bd 5c 55 6d bc 5f b9 7a bd 2d c9 65 bd
       -0.118048444 -0.014485683 -0.06121194 -0.05610006
000390 3c 65 0d 3e cc b4 2a be 82 a0 1f bd 3d 09 63 3e
       0.13808149 -0.16670531 -0.03897143 0.22171493
0003a0 ad 87 52 bd 3c 05 b5 be 09 81 2c 3e e3 74 97 be
       -0.05139892 -0.35355556 0.16846098 -0.29581365
0003b0 c0 63 b8 be 75 1b 01 bf 60 c9 b7 bd f2 20 0d be
       -0.36013603 -0.5043252 -0.08973956 -0.13782099
0003c0 c4 ea 2a be de 9b e8 3d 31 87 90 bd 06 9c 38 bd
       -0.16691118 0.11357854 -0.07057036 -0.04507067
0003d0 1a 53 e0 be 45 04 76 be 52 75 38 bd 49 67 a8 bd
       -0.438134 -0.24025066 -0.04503376 -0.08222825
0003e0 21 e0 ff bc 11 c8 ad bc d5 89 5c 3e 9f b3 9c 3b
       -0.031234803 -0.021213563 0.21536954 0.0047821547
0003f0 78 6c 18 bb 62 a6 13 be 8d 3a 96 be 76 f5 ff be
       -0.0023258012 -0.14418939 -0.29341546 -0.4999196

feature_extractor.dense_blocks.0.0.dense_layers.0.conv_bottle.0.bias f4 [32]
000000 5b ed 02 be 21 b9 b5 bd 96 ac 00 3e 38 ed d7 bd
       -0.12785856 -0.08873201 0.12565836 -0.10543293
000010 5b 4a 65 3d 9b 63 e0 3d 94 01 a1 3a 60 72 9d 3d
       0.055979114 0.10956498 0.0012283796 0.07687831
000020 f5 ff 9d 3d cf b8 fc 3d 61 17 f1 3d 51 f4 bd 3d
       0.077148356 0.12339937 0.11772037 0.09275115
000030 bb 29 e2 bd f8 0a 07 be 29 7c b0 3c 8a f4 e5 3d
       -0.11043116 -0.13187778 0.02154358 0.11228283
000040 83 6f 10 3e 17 c1 d2 3d 77 a7 a8 3c 99 76 6f bd
       0.14105038 0.10290735 0.020587666 -0.058462713
000050 96 99 4c 3d 85 3e bc bd a8 bb 87 3c 10 b2 d2 bd
       0.04995116 -0.09191612 0.016568974 -0.10287869
000060 94 d4 63 3c 27 32 e3 3d 00 ba 1e 3e d6 92 f1 bd
       0.013905663 0.1109355 0.15500641 -0.11795585
000070 d0 3c 28 3e a4 f3 aa bd 67 e6 10 3e f6 a1 2b 3b
       0.16429448 -0.08347252 0.14150392 0.0026189066

feature_extractor.dense_blocks.0.0.dense_layers.0.conv_bottle.1.weight f4 [32]
000000 5c 79 7d 3f 39 e8 61 3f fe 30 89 3f 36 93 64 3f
       0.99013305 0.8824497 1.0718076 0.89287126
000010 2d 42 89 3f 06 5e 5d 3f e3 68 79 3f 78 9f 7b 3f
       1.072332 0.86471593 0.9742567 0.98290205
000020 6e a3 58 3f bd 83 69 3f bd 78 97 3f c3 d2 7f 3f
       0.84624374 0.9121664 1.1833721 0.9993097
000030 bb 9c 82 3f 57 e1 98 3f ab b2 5c 3f 91 40 84 3f
       1.020408 1.1943768 0.86210126 1.0332204
000040 4e c4 88 3f 2d 4b 74 3f 0a 66 7b 3f 7b fa 7f 3f
       1.0684907 0.9542721 0.98202574 0.9999158
000050 a8 7f 66 3f ff 4a 82 3f 8d 94 69 3f 9b d5 87 3f
       0.9003854 1.0179137 0.91242296 1.0612062
000060 b1 6b 65 3f e4 94 52 3f 89 55 8c 3f 16 23 7a 3f
       0.8961745 0.8225844 1.0963603 0.97709787
000070 52 bf 6d 3f 96 ae 79 3f cc 30 55 3f 73 b4 9f 3f
       0.92870057 0.9753202 0.83277583 1.2476944

feature_extractor.dense_blocks.0.0.dense_layers.0.conv_bottle.1.bias f4 [32]
000000 bc f1 39 3d fc 43 bc bb 9a 73 3a 3e df 66 8b be
       0.04539655 -0.005745409 0.18208161 -0.27226922
000010 fb a6 f0 3e 79 76 40 be 0c e5 89 be eb 81 04 3e
       0.47002396 -0.18795194 -0.2693256 0.12940185
000020 e6 02 c0 be 1a 24 af bd 05 cb 3a 3e c5 d3 99 bd
       -0.3750221 -0.08551808 0.18241508 -0.07511095
000030 ec 6c 01 3e 2b 10 cf be c1 75 38 be 5d 28 b8 bd
       0.12639207 -0.40442023 -0.1801367 -0.08992074
000040 0e e1 8b 3d 2e 6e 88 bd 85 2a 06 3e 9f c1 1a bd
       0.06830035 -0.0666164 0.13102157 -0.037782308
000050 b8 81 a9 be 65 08 9b 3e 50 5c 14 3e 63 07 61 3e
       -0.3310678 0.30279842 0.1448834 0.21975474
000060 f4 e5 e2 bc 9d c8 0e 3c 42 b7 1f 3e d1 c4 d2 3d
       -0.02769754 0.008714822 0.15597251 0.10291446
000070 44 0a ce bd dd 51 68 bd ef cb c9 bd 6c b5 36 be
       -0.10060552 -0.056718696 -0.0985335 -0.17842644

feature_extractor.dense_blocks.0.0.dense_layers.0.conv_bottle.1.running_mean f4 [32]
000000 f6 c2 4b be 6b 1d 9b bd 94 ac 32 3e 74 62 3a 3c
       -0.1989859 -0.075739704 0.17448646 0.011376012
000010 d9 9c c0 3d 70 a1 c5 be 4e 9e ff 3e d4 c3 81 be
       0.09404916 -0.3859973 0.49925464 -0.25344718
000020 f0 61 77 3f 62 62 8b be 90 24 57 3e 18 45 aa bd
       0.96633816 -0.27223498 0.21010041 -0.0831396
000030 7d f5 c1 be 16 77 0e 3f 2f 0f 11 be bf 66 ee 3e
       -0.37882605 0.5565046 -0.14165948 0.46562764
000040 bb 47 a3 bd 2d e2 a5 3e 74 66 1c bf 5a 99 6d 3e
       -0.07972666 0.3239912 -0.6109383 0.2320303
000050 96 51 45 3f f3 49 c8 be 51 c2 d6 be 2e ce 48 bf
       0.77077615 -0.3911892 -0.41945127 -0.78439605
000060 ea 12 fa bd fa 54 c6 3e 94 fa 27 bd 21 6c 75 bf
       -0.12210639 0.38736707 -0.041010454 -0.95868117
000070 54 30 88 be 96 97 27 be 1e ee 36 3f 52 2e d8 3e
       -0.2659937 -0.16366419 0.7145709 0.4222284

feature_extractor.dense_blocks.0.0.dense_layers.0.conv_bottle.1.running_var f4 [32]
000000 5b 0e 2d 3f 7f 5c ac 3e 04 25 25 3f 92 81 c2 3e
       0.6760003 0.3366432 0.64509606 0.3798948
000010 cd be ca 3a 3d cb d9 3e 5f 63 1e 3e 94 eb 8a 3e
       0.001546824 0.4253787 0.15467595 0.27132857
000020 74 c5 54 3e 10 46 8f 3e 94 8e a3 3c 1b cf f3 3e
       0.20778447 0.2798314 0.019965447 0.47618946
000030 2d 62 ad 3d ec f1 27 3f 1e b3 c5 3e 52 d1 dd 3e
       0.08465991 0.6560352 0.38613218 0.4332376
000040 51 13 a0 3f 8c d0 0a 3e d1 3f 91 3e ca 3e e2 3e
       1.2505895 0.13556117 0.28369 0.4418853
000050 ce f7 f0 3e 2c 7f 1b 3e c4 d4 7f 3f 23 81 a2 3e
       0.4706406 0.15185231 0.9993403 0.31739148
000060 a9 96 db 3e d4 d6 8f 3e 6f 4d 36 3f 19 dd 9f 3e
       0.42888382 0.28093588 0.71211904 0.31223372
000070 5d 79 2f 3f aa 4f f5 3e 4f 69 95 3e ba 5c f7 3e
       0.6854456 0.4791234 0.29181907 0.48312932

feature_extractor.dense_blocks.0.0.dense_layers.0.point_conv.conv_delta.0.weight f4 [32, 3, 1, 1]
000000 be 8e 17 be f5 db 0f 3f 6f 39 d9 3e 51 e0 4e bc
       -0.14800546 0.56195 0.4242663 -0.012626723
000010 12 7e 47 be a4 0d 9b be 45 0b c8 be 96 98 ff 3d
       -0.19481686 -0.30283844 -0.39071098 0.12480275
000020 51 83 01 bf 7e d4 15 3f 41 20 2d 3e 2a 65 a3 be
       -0.50591 0.5852736 0.16906835 -0.3191312
000030 01 09 16 3f d1 c3 5e bd df 0e ea 3d 11 02 b9 3d
       0.5860749 -0.054385964 0.11428618 0.09033597
000040 0a d8 b7 bd ab 68 22 3f b8 b3 05 bf f6 d3 5a 3e
       -0.08976753 0.6344096 -0.52227354 0.21369919
000050 54 dc f2 3e 17 d0 e8 3e a5 7c 2b bf bd f0 0f 3f
       0.47433722 0.4547126 -0.6698707 0.5622671
000060 aa 10 93 3e de a5 2c 3e dd 67 95 bd 88 a0 32 3f
       0.2872365 0.16860148 -0.07295201 0.697762
000070 0a cc b1 bd 7f 17 b8 3e 79 15 c6 3e 14 d3 69 be
       -0.086814955 0.35955426 0.38688257 -0.22834426
000080 b8 fc 06 bf da b6 49 bf ff 7d 80 be 25 c3 9b 3e
       -0.5272937 -0.78794634 -0.25096127 0.3042232
000090 be e9 97 be 93 c7 0b bf 72 4d 38 3c 26 63 62 be
       -0.2967052 -0.546014 0.011248933 -0.22108135
0000a0 38 81 0e bf fa ac f3 be 9a 34 0e 3f 52 f8 97 bd
       -0.5566592 -0.47592908 0.55549014 -0.0742041
0000b0 54 9b c6 bc 74 44 85 bd b3 7d 08 3e 4f 86 6e 3e
       -0.024243988 -0.06507197 0.133292 0.23293422
0000c0 5b 8e d5 be 3f fd d0 3e 9d 1a a8 3d 20 3d d2 bd
       -0.4171017 0.4081821 0.08208201 -0.10265565
0000d0 da 14 dd be 9d f8 3d be 1f 60 18 bf ac e4 c5 be
       -0.4317997 -0.1855187 -0.5952167 -0.38651025
0000e0 5b 40 6e bd 25 85 db 3e 7e 00 45 bd 20 97 ba be
       -0.058166843 0.4287502 -0.048096173 -0.36443424
0000f0 66 a9 1f 3e d3 9e 4f be 35 9b b3 3e b7 8d 6a 3e
       0.15591964 -0.2027543 0.3507935 0.22905622
000100 e9 9a 83 3e eb 2c b8 bd f2 0d b5 3e 17 0e c0 3e
       0.25704125 -0.089929424 0.35362202 0.3751075
000110 bc 2a 1a be b3 b6 f7 be 2c bd 5f be ba 77 0f bf
       -0.15055364 -0.48381576 -0.21849507 -0.56042063
000120 39 9f 27 3f dc 28 b9 3d 8e e6 9f bd de 5d a7 be
       0.6547733 0.090409964 -0.07807647 -0.32688802
000130 67 96 c3 3e 1e ff f9 3d 29 ae 87 be ad 22 2f be
       0.38200685 0.12206863 -0.2650006 -0.17103072
000140 15 3b 15 bf 69 c4 8a bd 6b d5 96 3e 36 bf d3 3e
       -0.5829328 -0.067757435 0.294597 0.4135682
000150 8b 8e 85 3e 4c 74 e3 3e 8a 12 fb bb 2b 2d c8 3e
       0.26085314 0.44424665 -0.007662122 0.3909696
000160 41 a3 bb bd d5 51 0c 3f 5b 94 3b be f7 e5 6a 3e
       -0.091619976 0.54812366 -0.18318312 0.22939287
000170 40 2e d9 be 70 5c a4 3d d8 b6 18 bf 07 38 66 3e
       -0.42418098 0.080254436 -0.59654 0.2248231

feature_extractor.dense_blocks.0.0.dense_layers.0.point_conv.conv_delta.0.bias f4 [32]
000000 30 a8 58 be 30 2d f7 3e a7 b9 b3 3d 8b 6c 95 3e
       -0.21157908 0.48276663 0.08775645 0.29184374
000010 64 12 d4 be ae f2 41 be ba f7 b9 3d a1 98 b5 3e
       -0.4142028 -0.18940231 0.09080453 0.3546801
000020 43 5d 42 be c0 87 d8 3e 30 98 70 3e fc 5d 47 be
       -0.18980889 0.4229107 0.23495555 -0.19469446
000030 37 30 33 be c6 54 6a bd 5a e5 28 bf bf ff 9e 3b
       -0.17498861 -0.057209753 -0.6597496 0.0048522647
000040 0b 0f e1 be ed a5 f8 bd d3 2b 87 be ca 41 7f be
       -0.4395679 -0.12141023 -0.26400623 -0.2492744
000050 12 df ea bd 0b 52 60 3e 29 65 2a bf 1d 09 04 3e
       -0.114683285 0.21906297 -0.6656061 0.12894101
000060 c9 cb 5b bd 93 71 6e 3e 9a ca 21 3f a2 f9 21 be
       -0.05366114 0.23285513 0.6319977 -0.15817884
000070 c8 63 29 be 90 6c dc bd bc 8e a7 bd 86 cb 03 bf
       -0.1654197 -0.10762894 -0.08181521 -0.5148243

feature_extractor.dense_blocks.0.0.dense_layers.0.point_conv.conv_delta.1.weight f4 [32]
000000 b1 70 88 3f 7f a8 85 3f b9 9d 88 3f 71 8b 85 3f
       1.0659391 1.0442046 1.0673133 1.0433179
000010 32 c1 46 3f a1 b2 74 3f 70 71 79 3f 2a f6 67 3f
       0.7763854 0.95585066 0.97438717 0.9060999
000020 cf 52 88 3f df 9b 75 3f 2d 1a 7a 3f 2f 7d 79 3f
       1.0650271 0.95940965 0.9769619 0.9745664
000030 8c 7e 8b 3f 48 6a 5b 3f 63 3f 8a 3f c6 b4 84 3f
       1.0897994 0.8570905 1.0800594 1.0367668
000040 08 89 75 3f 2a a1 84 3f 23 2e 80 3f b1 7b 77 3f
       0.9591222 1.0361683 1.001408 0.96673113
000050 8f 93 6d 3f dd 41 90 3f 81 42 83 3f cb 2c 80 3f
       0.9280328 1.12701 1.025467 1.001367
000060 8c c5 88 3f e8 0e 82 3f 50 c6 82 3f 05 aa 82 3f
       1.0685287 1.0160799 1.021677 1.0208136
000070 e9 bf 6b 3f dd 14 7d 3f b1 e0 8c 3f 84 48 81 3f
       0.92089707 0.9885996 1.100607 1.0100255

feature_extractor.dense_blocks.0.0.dense_layers.0.point_conv.conv_delta.1.bias f4 [32]
000000 97 f4 ea bc 9c ac 32 bc 82 4f 3d be 74 f1 ba 3d
       -0.028681083 -0.010905411 -0.18487361 0.09128085
000010 53 04 0c bf 45 97 12 be 24 03 86 3c d2 c0 08 be
       -0.546941 -0.14315517 0.01635892 -0.13354805
000020 c5 5a 07 3e da 4e 06 bd 7a f7 27 be f9 50 30 3e
       0.1321822 -0.032790042 -0.16402999 0.17218389
000030 47 f3 55 3d 6b eb ea be 19 25 16 3d cf 3c 84 3b
       0.05223396 -0.45882735 0.036656473 0.0040355693
000040 1b 2e ae be 52 6a b9 3d b4 8f 4d 3e ad cd 18 be
       -0.3401955 0.09053482 0.2007435 -0.14922209
000050 38 e6 1f bd 01 9c a6 3c 27 49 52 3e 77 d7 30 bc
       -0.039037913 0.02033806 0.20535718 -0.010793558
000060 bf 70 e2 bc b9 c7 45 be ec 54 db 3c 6b 35 70 be
       -0.027641652 -0.1931447 0.026773892 -0.23457877
000070 7d b4 28 3e 35 a7 09 3e 5a 2c 57 be 6c a0 5a 3c
       0.16475101 0.1344269 -0.21013013 0.013343912

feature_extractor.dense_blocks.0.0.dense_layers.0.point_conv.conv_delta.1.running_mean f4 [32]
000000 16 3b 58 be 9d 48 f7 3e 18 7c b4 3d 82 93 95 3e
       -0.2111629 0.48297587 0.088127315 0.29214102
000010 0e 06 d4 be 1e b4 41 be db c0 b9 3d 32 62 b5 3e
       -0.4141087 -0.18916366 0.090699874 0.3542648
000020 00 8d 42 be 01 a7 d8 3e 75 30 70 3e da f9 46 be
       -0.189991 0.42314914 0.23455985 -0.19431248
000030 f8 e2 33 be 61 9d 6a bd 89 ed 28 bf 6c e0 ba 3b
       -0.1756705 -0.057278994 -0.6598745 0.0057030227
000040 d8 71 e1 be f6 e4 f9 bd 6e 52 87 be a8 05 7f be
       -0.44032168 -0.12201874 -0.26430076 -0.24904501
000050 fc d2 ea bd 0c 65 60 3e e5 4c 2a bf dc a9 04 3e
       -0.11466023 0.21913546 -0.6652358 0.12955421
000060 ad ce 5d bd e2 33 6e 3e 4d d0 21 3f 8d bf 22 be
       -0.05415218 0.23261979 0.63208467 -0.15893383
000070 86 8a 29 be 80 78 dc bd 9b bd a7 bd 2a da 03 bf
       -0.16556749 -0.10765171 -0.08190461 -0.51504767

feature_extractor.dense_blocks.0.0.dense_layers.0.point_conv.conv_delta.1.running_var f4 [32]
000000 e3 88 67 3a cb 0a 66 39 65 23 3b 3a 6b 2a 50 3a
       0.00088323484 0.0002193853 0.0007138758 0.0007940891
000010 ad 82 20 3a 96 14 37 3a 9e af 72 3a 62 c8 d6 3a
       0.0006122988 0.00069839635 0.00092577364 0.0016386623
000020 2b 75 4b 39 ad b7 8a 3a 78 b7 55 3a 86 ee aa 3a
       0.00019403237 0.0010583304 0.0008152644 0.0013041056
000030 1a d2 28 3a 48 61 81 3a fd dd 0c 3a 9b d4 07 39
       0.0006439999 0.0009870911 0.0005373655 0.00012953805
000040 61 b1 1c 3a 61 5c cc 39 11 87 5e 3a e0 8c 0d 3a
       0.0005977359 0.0003897874 0.00084887544 0.0005399715
000050 42 7a a5 39 aa 8e 5c 39 ff 24 fb 39 d3 62 83 3a
       0.00031562342 0.00021033981 0.00047902015 0.0010023959
000060 c6 7c 44 3a fb 68 f1 39 84 71 41 3a 5b 59 e9 39
       0.00074953993 0.0004604532 0.0007379281 0.00044507798
000070 5b 26 e8 39 c8 65 4b 3a 70 7f e9 39 33 b3 35 3a
       0.00044279065 0.0007759002 0.00044536171 0.0006931305

feature_extractor.dense_blocks.0.0.dense_layers.0.point_conv.conv_feats.0.weight f4 [32, 32, 1, 1]
000000 b0 e6 56 be 17 49 a0 3d 18 dd ab bd 68 aa 30 be
       -0.20986438 0.07826441 -0.0839178 -0.17252505
000010 a1 c5 10 be 5d f5 7d bd 18 74 8e bd f7 4a 99 be
       -0.1413789 -0.062001575 -0.06955737 -0.29940006
000020 b7 0b 11 be b7 01 14 be 34 89 54 3e 20 8e 1f 3d
       -0.14164625 -0.14453779 0.20755464 0.0389539
000030 4d a0 e0 bd a3 5c 74 be bd cd c3 3d 84 f9 44 be
       -0.10968075 -0.23863463 0.09560726 -0.19235808
000040 8d 45 da 3b 94 4a fb bb 7e 6e cb bb d5 c9 4f be
       0.006661123 -0.0076688025 -0.00620824 -0.20291837
000050 52 6b 26 be 5e ad e0 bd 72 08 00 3e 31 8d 7a bd
       -0.16251877 -0.10970567 0.12503222 -0.061169807
000060 ee 62 a8 3a 1f 7b ac bc d3 ca 91 3d c0 5b 08 bd
       0.0012846866 -0.021054802 0.07118764 -0.033290625
000070 c9 5d b4 be dd ac e4 be b9 4d 13 bd 5d a8 bc be
       -0.35227802 -0.44663134 -0.035962794 -0.368472
000080 fb 75 f4 3d 65 c1 e0 3d c0 81 1d bc 1d 56 48 3d
       0.119365655 0.10974387 -0.009613454 0.04891025
000090 7c 14 9d 3e 42 d9 36 bd fd 2a 81 be d0 bf e7 3d
       0.3067969 -0.044640787 -0.2522811 0.11315882
0000a0 04 c2 60 bd 84 cd ab 3d f0 6d 1b be 9e c6 a8 3e
       -0.054872528 0.08388808 -0.15178657 0.32964033
0000b0 81 e0 d8 3d 19 9c f5 bd 6a 0f a0 bd e2 2c 22 be
       0.10589696 -0.11992664 -0.0781544 -0.15837434
0000c0 93 3b fd bd fe be a3 bc 55 6d 11 3e c6 a5 8b 3d
       -0.123648785 -0.019988533 0.14201863 0.06818728
0000d0 91 59 a3 3d 64 ca 0c be 69 2d 11 be d0 ea 4f be
       0.07976068 -0.13749081 -0.14177479 -0.20304418
0000e0 fa bf 67 3d e6 45 a5 be a0 b3 18 be 65 1d 56 3d
       0.056579567 -0.3227989 -0.14912271 0.052274127
0000f0 32 13 31 b8 1a 2f e9 3b 90 6a 93 3d ae 55 89 3d
       -4.2217966e-05 0.0071162106 0.071980596 0.06705795
000100 98 42 52 3d 8f 68 6f be 4a bf 32 be 13 d0 e9 3c
       0.05133304 -0.2337973 -0.17455783 0.0285416
000110 06 cc 73 3e d5 cb b5 bd 70 96 24 3e 34 fe 03 3e
       0.23808298 -0.088767685 0.16073012 0.1288994
000120 c5 4f 66 3d be 2f bf 3e 74 89 f9 bc a0 ba 25 3e
       0.056228418 0.37341112 -0.03046105 0.16184473
000130 87 b1 32 3e 87 67 85 3e 3b b6 c1 bd 41 b8 a3 bd
       0.17450534 0.26055548 -0.09458586 -0.07994128
000140 88 45 37 be 3b cd e8 3d c4 bf da bd bf 8f 35 3e
       -0.17897618 0.113672696 -0.10681108 0.17730616
000150 72 2c 87 bd 12 b6 73 bd d8 b4 98 bd e7 64 48 be
       -0.06600274 -0.059499808 -0.07456368 -0.19569741
000160 0e 4b 77 3e 84 b2 bd bd f4 5a 02 be 78 6e 13 3e
       0.24149725 -0.09262565 -0.12730008 0.14397609
000170 1c a7 19 bc 18 26 33 3e a3 9f 98 3d 14 d1 c2 3b
       -0.009378221 0.17495 0.07452323 0.005945334
000180 29 ed 6d be d4 dc 50 3d 73 cc d9 bd 26 8a a9 3d
       -0.23235 0.050991848 -0.10634699 0.08278303
000190 d5 90 04 be 58 a5 18 3e ee f1 81 bd 51 e7 7d be
       -0.12945874 0.14906824 -0.063449726 -0.24795271
0001a0 16 86 b7 3d 1f aa 0b be 69 09 7e 3e 2e 93 93 bd
       0.08961122 -0.13639115 0.24808277 -0.07205807
0001b0 53 8a ac 3c a5 4a c6 bd be 91 a6 3c 01 86 5c bd
       0.021062052 -0.09682206 0.020333167 -0.053838734
0001c0 e1 49 a9 3d 9d 83 d3 bd 2f 24 91 3e 55 85 95 be
       0.082660444 -0.103278376 0.28347918 -0.29203287
0001d0 be 66 0e 3d 87 c5 41 3e 51 db f9 3d f8 9f fb 3d
       0.03476595 0.18923007 0.122000344 0.12286371
0001e0 97 bf 67 3c 49 fe 11 be 21 dd 8b bd 77 db db bd
       0.0141448 -0.14257158 -0.06829286 -0.10735219
0001f0 cd da 75 be ac f6 4f be 8d cc 86 bd cc 03 92 be
       -0.24009247 -0.20308942 -0.06581984 -0.28518522
000200 3d 08 0b 3e 58 14 ac bb 5b c9 3e 3e 0a a1 5f 3e
       0.13577361 -0.0052514486 0.18631499 0.21838775
000210 e0 58 82 3d 72 3c 13 be 49 5c 5e 3e 5f 9e 83 3c
       0.06364608 -0.14378527 0.21714891 0.016066728
000220 fc fb 27 3e 0d 7f 3f be 7a ad 0b be 28 68 96 bc
       0.16404718 -0.1870081 -0.13640395 -0.018360212
000230 af c2 81 bd 1d 44 38 3e 96 24 ea bd f0 b7 89 bc
       -0.06335961 0.17994733 -0.114327595 -0.016811341
000240 12 0e 24 be 89 a3 23 bd 1d 56 7f bd 14 8f 8e 3e
       -0.16020992 -0.03995088 -0.062337983 0.27843535
000250 c1 10 b6 3c b7 e7 bc bd 9c 45 40 be bf 9a e6 3c
       0.022224786 -0.092238836 -0.18776554 0.02814996
000260 5c a0 67 be e4 72 2b 3d bf 41 af bd d9 12 13 bd
       -0.22619766 0.041857615 -0.08557462 -0.035906646
000270 8f a6 87 bd 19 f3 0a bd f9 75 71 3e fd 2a 25 3e
       -0.066235654 -0.033923242 0.23580159 0.1612968
000280 0f b1 96 bd 47 b0 15 3d 1c 0b b7 bd 8f bf 81 3e
       -0.0735799 0.036545064 -0.08937666 0.2534146
000290 5a 96 5d be 60 d7 6a be e6 c8 1c 3e e2 0c c3 3d
       -0.21639386 -0.22933722 0.15311012 0.095239416
0002a0 76 aa c6 bd 3d 98 6e 3c 20 46 11 3e e1 d4 c2 3d
       -0.097004816 0.014562664 0.14186907 0.0951326
0002b0 9e 70 08 be 40 27 9e bb a5 91 23 be a5 b2 9f 3d
       -0.1332421 -0.0048264563 -0.15973528 0.077977456
0002c0 1f 65 07 3d 01 e4 8c bb 3e 40 87 3d a1 4a 81 3c
       0.03305542 -0.004299641 0.0660405 0.015782656
0002d0 5f 8e f2 bd 09 5d 69 3d 4a e8 b4 3c cc 3d 1f 3e
       -0.118435614 0.05697349 0.02208342 0.15550917
0002e0 de 6d 23 be eb cf 5b bc ce 25 dd be c5 88 f4 bd
       -0.1595988 -0.013416271 -0.43192905 -0.11940149
0002f0 a1 22 c5 bc 44 97 1b be b8 b1 47 3e 0c 59 25 3e
       -0.024064364 -0.15194422 0.19501388 0.1614725
000300 52 b7 8c 3e 22 cb 6a 3e a0 20 88 3d b3 1b 9f 3c
       0.27483612 0.22929052 0.06646848 0.019422388
000310 d4 cb bc be 7a c9 29 be 56 8b 43 3d 0f 81 7e bb
       -0.3687426 -0.16580763 0.047740303 -0.003883425
000320 84 25 9d bc d3 03 0c be b5 d7 9f 3e 14 44 19 be
       -0.019182928 -0.13673334 0.3121926 -0.14967376
000330 3f b6 96 bb 98 f6 ad bb f0 7d 47 3d 97 35 0a 3e
       -0.004599362 -0.0053089373 0.048704088 0.13497005
000340 4b 7e 90 3e 0c cb 6a be 49 3d bf 3c 0d 69 b6 bd
       0.28221354 -0.22929019 0.023344653 -0.089067556
000350 2a 97 81 bc 47 27 35 3e 43 88 c1 3c b6 a9 c2 bc
       -0.015819151 0.17690764 0.023624545 -0.023762565
000360 74 76 b4 3d 44 18 b9 bd c7 b9 1d 3e 2f 13 71 bd
       0.08811656 -0.090378314 0.154029 -0.058856186
000370 27 be ff bd 71 57 17 be 32 09 c0 bd cf 0a 58 3d
       -0.124874406 -0.1477945 -0.09376754 0.052744683
000380 a1 82 d5 3d bd 5d 9b 3d d3 21 3a be d3 b4 00 3e
       0.10425306 0.075862385 -0.18176965 0.12568979
000390 07 db 8f 3e 56 3d d0 bc ad 1e 46 bd c9 5a c4 bc
       0.28096792 -0.025419872 -0.0483691 -0.023969071
0003a0 cd 0d 93 bd f4 56 34 3e 6c e5 70 bd 9b de 07 3e
       -0.07180367 0.17611295 -0.058812544 0.13268511
0003b0 bb 09 9e 3d 27 40 3a 3d 02 38 e0 be 9e ac b3 bc
       0.077167 0.045471337 -0.4379273 -0.021932896
0003c0 d4 c0 ca bd 8f db 13 3d df dc ac bd 96 5e d0 bd
       -0.0990006 0.03609806 -0.08440565 -0.10174291
0003d0 b1 96 59 be 9d a1 ad bd 41 f3 16 be 3c 69 6e bd
       -0.2124889 -0.08478091 -0.14741232 -0.058205828
0003e0 fc 3b 0f bd 2e 15 6d be f8 b7 47 be a7 49 f9 3d
       -0.034969315 -0.2315261 -0.19503772 0.12172251
0003f0 11 83 40 be a8 22 05 3e 3c a9 38 3d 4b 37 23 3d
       -0.18799998 0.13001502 0.04508327 0.039847653

feature_extractor.dense_blocks.0.0.dense_layers.0.point_conv.conv_feats.0.bias f4 [32]
000000 a5 0a 20 3e 23 cb 2a be 4f 56 31 bd b3 04 3d be
       0.1562906 -0.16679053 -0.0432952 -0.18458824
000010 3e a7 ef 3c c9 ff f7 3d ae 38 b4 bd fd f6 07 be
       0.029254552 0.12109334 -0.08799873 -0.13277812
000020 1e 50 0d be b8 bc cb bd fc a4 21 be 1c 31 cf 3d
       -0.13800094 -0.099481046 -0.15785593 0.10116789
000030 96 8f 0e be 61 2f dd bd 14 e8 96 3c b1 66 94 3d
       -0.13921961 -0.108000524 0.01842121 0.07246149
000040 4f 0a 19 be fa cc 0d 3e 49 b9 e7 bd 2e 6f 9d bd
       -0.14945339 0.13847724 -0.11314637 -0.076872215
000050 27 52 16 bd 80 51 a8 bd f0 8f 94 bd d6 cd 26 3d
       -0.03669944 -0.0821867 -0.072540164 0.040723644
000060 e4 e1 ab 3d 93 83 25 be ea bc dc bd 3e 98 07 3e
       0.083926946 -0.16163473 -0.1077822 0.1324167
000070 93 eb a8 bd 2e b4 a7 bc 9f 04 9e bc 1e 0f 55 3a
       -0.08248057 -0.020471659 -0.019289313 0.0008127558

feature_extractor.dense_blocks.0.0.dense_layers.0.point_conv.conv_feats.1.weight f4 [32]
000000 17 e6 74 3f af 0d 82 3f 19 2a 8a 3f 0b 3c 86 3f
       0.9566359 1.0160426 1.0794097 1.0487074
000010 a8 20 65 3f a2 bd 6d 3f 9e 42 78 3f 34 31 65 3f
       0.89502954 0.9286748 0.9697665 0.89528203
000020 50 1f 5c 3f 84 fa 73 3f 57 15 77 3f 63 01 7e 3f
       0.8598528 0.9530413 0.96516937 0.99220866
000030 92 cf 86 3f ff 25 78 3f 0d 10 8b 3f 0e 5b 7b 3f
       1.0532095 0.9693298 1.0864273 0.98185813
000040 37 c0 78 3f f0 e5 75 3f 6e e7 82 3f 7d f1 75 3f
       0.97168297 0.9605398 1.0226877 0.96071607
000050 e2 a6 67 3f a1 07 87 3f 10 b1 63 3f f8 01 7f 3f
       0.9048902 1.0549203 0.8894205 0.9961238
000060 38 ba 87 3f 08 e3 83 3f 6d d5 76 3f 58 09 81 3f
       1.0603704 1.030366 0.9641941 1.0080976
000070 de 1c 3b 3f 92 3c 7f 3f 53 10 87 3f ca 86 76 3f
       0.7309092 0.997018 1.0551857 0.9629942

feature_extractor.dense_blocks.0.0.dense_layers.0.point_conv.conv_feats.1.bias f4 [32]
000000 a1 cb f7 3e 84 f2 85 3e 5f f6 0c 3e 64 35 43 3e
       0.48397544 0.26161587 0.13765858 0.19063336
000010 e5 09 e1 bd 4e e1 7c 3e b8 c2 3a 3d e2 6b 69 3d
       -0.10988215 0.24695322 0.045595855 0.05698765
000020 25 94 4f bf ad 5f 2d b9 f1 4a 36 3e e7 de 6d bc
       -0.81085426 -0.00016534208 0.17802025 -0.014518476
000030 86 75 9b 3e b7 3b bb 3c 02 fc b9 bc 08 c0 b8 3e
       0.303631 0.022855623 -0.022703175 0.36084008
000040 2e d6 6c 3e ec 07 c9 3e 33 30 56 3d 52 50 15 3e
       0.23128578 0.39263856 0.05229206 0.14581421
000050 16 cc c4 3d df 86 35 bf b8 48 0e bf 9d 2b a3 3d
       0.09609239 -0.7090892 -0.5557971 0.07967303
000060 c3 40 a1 3e 5c f4 05 3e 05 26 a4 3e d1 31 2d 3e
       0.31494722 0.13081497 0.32060257 0.16913535
000070 aa 95 2b bf f7 b6 2c 3e a0 a7 f2 3e 41 c8 8d 3e
       -0.67025244 0.1686667 0.47393513 0.27691844

feature_extractor.dense_blocks.0.0.dense_layers.0.point_conv.conv_feats.1.running_mean f4 [32]
000000 f2 94 7a bf d6 aa 60 be e6 5e 87 3e f5 8d 17 bf
       -0.9788352 -0.21940169 0.2643959 -0.59200984
000010 18 aa 60 3d de a7 cf bd 8f c9 a5 3d 32 f2 d6 be
       0.054849714 -0.1013944 0.08095085 -0.41981655
000020 c7 06 2a 3e 10 ed be 3d 56 8b 1b be f6 c8 cb 3e
       0.16604148 0.0932256 -0.15189871 0.3980176
000030 17 d8 00 3c 70 e1 16 be 43 5d 35 3e eb b3 8c bf
       0.00786402 -0.14734435 0.17711358 -1.0992407
000040 03 1c 6a bf 10 7b 7a be d0 02 bc 3e 91 8c 1a bf
       -0.9144899 -0.24461007 0.36720896 -0.6037074
000050 c6 7a 53 3f 0f 8d 28 3f f7 18 b8 3e ba f9 21 3f
       0.8260921 0.6584024 0.35956547 0.6327168
000060 a7 b6 35 bc 8a c8 ea 3e 05 79 6a bf 8c 33 a2 3e
       -0.011090911 0.45856124 -0.9159091 0.31679952
000070 67 60 ac 3d 06 71 21 bd a8 43 8f 3e 3f 6e 32 bf
       0.08416825 -0.03941443 0.27981305 -0.6969947

feature_extractor.dense_blocks.0.0.dense_layers.0.point_conv.conv_feats.1.running_var f4 [32]
000000 12 2a b8 3f 49 74 d8 3e 81 9b 87 3f ca 91 17 3f
       1.4387839 0.4227622 1.0594331 0.5920683
000010 08 99 d0 3e aa 72 7e 3e 60 4a 04 3f a6 fa eb 3e
       0.40741754 0.24848428 0.5167599 0.46089667
000020 3b c8 1a 3e e5 90 7b 3e ad dc 33 3f d8 f1 a8 3e
       0.15115444 0.24566992 0.702586 0.32997012
000030 15 5e 2b 3f 0a 3f c8 3e 34 5a 9b 3e d8 c7 07 3f
       0.6694043 0.39110595 0.30342257 0.5303931
000040 f5 98 0d 3f 24 7c e6 3e f2 c8 69 3e 12 2b ad 3f
       0.5531152 0.45016587 0.22830561 1.3528769
000050 7a e0 03 3f 55 41 3e 3e 56 89 a9 3e 3c 58 73 3e
       0.515144 0.1857961 0.33112592 0.23764127
000060 6e ca 36 3e 25 6f 96 3e 99 b3 ae 3e 1c 4f 3d 3f
       0.17850658 0.29381672 0.34121397 0.73948836
000070 78 01 79 3e c9 0a 38 3e 91 b6 bc 3e d7 13 d8 3e
       0.24316967 0.17972864 0.36858037 0.42202637

feature_extractor.dense_blocks.0.0.dense_layers.0.point_conv.post_conv.0.weight f4 [32, 32, 1, 1]
000000 75 79 f2 bd 80 53 17 be 0e 6d 0a bf 2c dd 74 bc
       -0.11839572 -0.14777946 -0.54072654 -0.01494531
000010 02 57 35 3d 77 1d dc 39 bb 50 9a 3c e8 53 6d 3c
       0.04427243 0.00041983623 0.018837323 0.014485337
000020 af a2 f4 3c d9 24 d6 bd fc 90 40 bd cb e8 10 bd
       0.02986273 -0.10456247 -0.047013268 -0.03537826
000030 4e a2 ac 3d b8 17 40 be b4 4f d4 3d de 1b 7c be
       0.08429395 -0.18759048 0.10366765 -0.24620005
000040 11 0e ae be 39 b4 42 3e 9d 37 89 be 7c c9 01 3e
       -0.33995107 0.19014062 -0.26800242 0.12674516
000050 4f 3f ad 3d 21 70 71 be c0 33 df 3c ea 48 f0 bd
       0.08459341 -0.2357793 0.027246356 -0.11732657
000060 d6 32 df 3d a4 9d 8a be c9 67 01 be 96 82 d0 be
       0.10898368 -0.27073395 -0.12637247 -0.4072463
000070 a0 ee 95 be 17 0a 12 3e 4e a1 63 be fa 27 e3 3d
       -0.2928362 0.14261661 -0.22229502 0.11091609
000080 e6 33 90 3d 46 3e 20 be d3 f3 c7 3d c7 17 07 bc
       0.07041149 -0.15648755 0.09763303 -0.008245415
000090 2a 0c 49 3e 60 6b 9b 3d 37 1a 13 3e cf ca bc bd
       0.19633546 0.075888395 0.14365469 -0.0921837
0000a0 cb 75 95 bc 31 c4 a3 be da 36 23 3e 1d 8a 05 be
       -0.018244645 -0.3198562 0.15938893 -0.13040967
0000b0 df cc 89 3e ca 86 62 bc 7a e1 23 3e 75 3a 65 3e
       0.26914117 -0.0138260815 0.16003981 0.22385581
0000c0 79 ca 50 3d d8 a6 d0 3d 63 67 9f bc 04 63 67 3e
       0.050974343 0.10188073 -0.019458478 0.22596365
0000d0 ba db 95 3d 3d 1e f7 3d c2 08 88 be 10 02 3e 3e
       0.073173 0.12066314 -0.26569182 0.18555474
0000e0 14 af 17 3e 9e 85 29 3e a2 89 d7 bd 87 49 98 3d
       0.14812881 0.16554877 -0.10524298 0.07435899
0000f0 69 c7 33 be a4 d1 00 be 76 74 0f 3e 7c 23 bf be
       -0.17556538 -0.12579972 0.1400927 -0.3733176
000100 2b 81 28 3e 88 35 88 be 40 50 65 be 9c b0 19 be
       0.16455524 -0.2660334 -0.22393894 -0.15008777
000110 ac 91 a0 3a ed ce a4 3c 68 4c 8f 3e 9e 3b 33 bb
       0.0012250445 0.020118201 0.2798798 -0.0027348767
000120 51 0d 95 3d 5b c2 2a 3e d0 fc a6 3c 03 63 92 be
       0.072779305 0.16675703 0.020384222 -0.28591165
000130 a1 3d 03 be dc e2 ad bc c4 11 c6 3c b8 31 76 bd
       -0.12816478 -0.021226339 0.024178393 -0.06010601
000140 2a 34 9f 3d cf 8e 3b be 25 cb 6d 3e 53 13 86 be
       0.077736214 -0.18316196 0.23222025 -0.26186618
000150 b7 f2 6b be 0d 66 90 3d 7f da 36 3c 03 9d 4a be
       -0.23041807 0.07050715 0.011160492 -0.19786458
000160 67 9d 1f 3e 06 f5 db 3d ca 95 87 be 13 f6 07 3e
       0.15587388 0.10740094 -0.26481467 0.13277464
000170 9e 2e 16 be a5 35 2e 3e 6f aa b5 be a9 7c 18 be
       -0.1466622 0.17012651 -0.35481593 -0.14891304
000180 57 fb b0 3d d2 17 bf be df 26 91 3d 48 1f 5e 3e
       0.08641689 -0.3732286 0.07087492 0.2169162
000190 ad 61 ae bd 74 fc b8 3d 5a 39 e3 3d 5b 43 b3 be
       -0.08514724 0.090325266 0.11094923 -0.35012326
0001a0 d1 89 0d 3e 09 b7 b8 3c b1 06 18 be cc 31 28 bd
       0.13822104 0.022548215 -0.14846303 -0.041063115
0001b0 48 7f 81 be f1 f7 d4 3c 19 8c 62 3e 32 3f c3 bc
       -0.2529242 0.025997134 0.22123756 -0.023833845
0001c0 05 2f 71 bc 76 10 89 be f4 79 db 3d 45 0a 90 bd
       -0.014720683 -0.2677037 0.1071662 -0.07033209
0001d0 0f d5 4d be d5 c8 40 3d 8f 4f 65 3e 99 09 dc 3d
       -0.20100807 0.04706653 0.2239363 0.10744018
0001e0 c0 90 66 3e 90 37 04 be a3 3c 04 ba 97 ce 0e 3e
       0.22516155 -0.1291182 -0.0005044436 0.13945995
0001f0 03 59 20 be 9a 85 8b bd ce b8 40 be 9d 7a 5e 3d
       -0.15658955 -0.06812592 -0.18820497 0.054316152
000200 95 42 79 be df 5e 27 be cf 83 8a bd af cc a4 bd
       -0.24341805 -0.16344784 -0.06763422 -0.08046853
000210 28 3c 0f be cf 91 00 bd 4a ab 33 be 73 eb 6e 3b
       -0.13987792 -0.031389054 -0.1754581 0.0036456257
000220 70 2a d2 3e ce 4c b5 bd 44 8b 31 3e 7f f7 f1 bd
       0.41048002 -0.0885254 0.17338282 -0.11814784
000230 76 f5 db bc 3c 83 7e 3b 42 c0 32 3e d8 06 12 bd
       -0.026850443 0.0038835546 0.17456153 -0.035651058
000240 1a 4d db bc 30 bf a7 3d 92 42 5d be 0c b2 59 be
       -0.026770163 0.08190763 -0.21607426 -0.21259326
000250 a8 82 a3 3d 8d da c5 3e a3 cd 1b 3e d9 42 69 be
       0.07983905 0.38643304 0.15215163 -0.22779407
000260 c7 ad 2b 3d c9 63 92 be 13 78 4d 3d 81 62 ad 3d
       0.041913774 -0.28591755 0.05016334 0.08466054
000270 27 4d c9 3d 1a 42 d2 ba be 89 87 bd d8 bc 77 bd
       0.09829169 -0.0016041428 -0.06618069 -0.06048283
000280 85 2e 3e bd a0 62 bc bd 9e 59 be ba 25 76 32 bd
       -0.046431083 -0.09198499 -0.0014522558 -0.043569703
000290 66 a4 e8 3d 14 1f b4 be 51 c3 41 3d 7b 64 29 be
       0.113594815 -0.3517996 0.04730541 -0.16542237
0002a0 62 9c 60 bc 0d 89 e0 bd a6 f2 24 3e 60 d8 e6 be
       -0.01370916 -0.1096364 0.16108188 -0.45086956
0002b0 04 61 ea bd ab dc b1 bd 2b a3 70 3e bf 63 10 be
       -0.114442855 -0.08684667 0.23499744 -0.1410055
0002c0 88 8f bb bc 4c 05 ce bd d9 2e 20 be e9 f4 16 3c
       -0.02289559 -0.10059604 -0.15642871 0.009213665
0002d0 52 a3 5b bd e3 55 72 3e 38 cf 4e be f0 ce 88 3c
       -0.05362255 0.23665576 -0.20196235 0.016700238
0002e0 f0 52 67 bc 87 9c 28 be 00 b4 88 be 29 57 de 3d
       -0.014118895 -0.1646596 -0.2669983 0.10856468
0002f0 71 ef 1d be 75 34 43 be e4 4a 92 bc 0e ac 50 be
       -0.15423371 -0.1906298 -0.017857976 -0.20378134
000300 a7 24 65 bd df 44 38 3d a9 d6 ad bd 16 dd 32 be
       -0.055943158 0.044987556 -0.08488209 -0.1746715
000310 c7 ff 1a bd 03 7e 09 3e 1a 04 84 bd 20 49 c1 bd
       -0.037841585 0.13426976 -0.06446095 -0.094377756
000320 9b 0f ce 3e b9 d7 23 be 41 11 44 3e f5 5f d7 3d
       0.4024628 -0.1600026 0.19147207 0.10516349
000330 c5 ae 64 3d 12 43 89 be 8e 68 e5 bd 91 98 30 3e
       0.055830736 -0.26808983 -0.11201583 0.172457
000340 e9 50 55 bd 70 4e 98 bd 5e 30 82 bc fb 53 56 be
       -0.052079115 -0.07436836 -0.015892204 -0.20930474
000350 85 1e ff 3c 18 f6 3b 3e 86 c0 91 3e 7e 6b 83 be
       0.031142483 0.18355596 0.28467196 -0.25667948
000360 7b cb 75 be 6a 2e 2d 3e 2d 59 00 3e 2b 93 75 3e
       -0.24003403 0.16912237 0.12534018 0.23981921
000370 55 fa 23 3e 5f 0a c3 bd aa 96 dc bc 50 0a 69 3e
       0.16013463 -0.095234625 -0.026927311 0.2275784
000380 fc 0b 8b 3e 9e f6 e0 bb 89 5b 0d bd cf 39 7f be
       0.2715758 -0.0068653366 -0.034511123 -0.24924396
000390 c6 b0 90 bd 12 45 80 3e 35 ea 23 3e f6 bb 4d bd
       -0.07064967 0.25052696 0.16007312 -0.05022808
0003a0 37 87 79 be 48 91 0d 3e 6f c5 28 be 07 cf 65 bd
       -0.24367987 0.13824952 -0.16481565 -0.05610564
0003b0 f3 b6 0b be ff 37 25 3e a8 70 15 bd a4 ba 15 3e
       -0.13644008 0.16134642 -0.03648439 0.14621979
0003c0 eb 28 92 3d f7 63 9c bd 46 22 00 be a4 ef 7e bd
       0.07136711 -0.07636254 -0.12513074 -0.062240258
0003d0 dd 56 14 3c 82 c2 6c be 5f 04 56 3d 73 17 87 be
       0.009053913 -0.23121074 0.052250262 -0.26385078
0003e0 e4 c5 e1 3d d8 2c f4 3d 19 ca c3 bd 10 be cf 3d
       0.11024073 0.11922616 -0.095600314 0.101436734
0003f0 6c ea 6e be e1 54 00 3d d7 a6 94 bd bb db 6e 3d
       -0.23331612 0.031330947 -0.07258385 0.05831502

feature_extractor.dense_blocks.0.0.dense_layers.0.point_conv.post_conv.0.bias f4 [32]
000000 f5 f3 1a be 71 e3 1f bd ab 0b 21 3e c2 70 ad 3d
       -0.15132125 -0.039035264 0.15727107 0.084687725
000010 4d 2a bb bd 92 73 19 3d c6 10 b9 3d 75 9c bb 3c
       -0.091389276 0.037463732 0.090364024 0.022901753
000020 47 dc fc 3d 91 b1 b7 3d a4 98 18 be 08 02 43 bd
       0.12346702 0.08969415 -0.14901978 -0.04760936
000030 fb 3c 2d be d2 de 4a 3d a6 dd 26 be 5c 12 41 bd
       -0.16917793 0.049528904 -0.1629549 -0.04713665
000040 80 87 0c 3e 32 4d 60 3d 09 ca a8 3d 4f 14 c0 3c
       0.13723564 0.05476112 0.0824166 0.023447184
000050 83 d2 ca 3d 58 ba 0b be ee e2 16 bd 83 53 be bd
       0.09903433 -0.13645303 -0.03683751 -0.09293272
000060 86 c6 d2 bd dc 99 44 bd 90 0e d5 3d 4d 1b 21 be
       -0.102917716 -0.047998294 0.10403168 -0.1573307
000070 c7 3d 1d be 46 40 b9 bd 6f 99 0c 3e 72 f7 f7 bd
       -0.15355597 -0.09045462 0.13730405 -0.12107743

feature_extractor.dense_blocks.0.0.dense_layers.0.point_conv.post_conv.1.weight f4 [32]
000000 07 a3 5a 3f 90 d6 22 3f 63 6a 53 3f dd 9d 6d 3f
       0.8540501 0.63608646 0.8258421 0.92819005
000010 8f f3 66 3f 73 e7 37 3f b8 d1 07 3f f3 61 64 3f
       0.9021539 0.7183754 0.5305438 0.8921196
000020 30 cb 3d 3f 3a f8 51 3f be 1c 68 3f e7 16 38 3f
       0.74138165 0.8201939 0.9066886 0.71909946
000030 ad b5 3f 3f 7c 4f 23 3f 6c f0 58 3f 9b 74 5b 3f
       0.7488659 0.6379316 0.84741855 0.857248
000040 6e 5a 43 3f cd 4c 4c 3f dd 6c 42 3f 4a 46 62 3f
       0.7630986 0.7980469 0.7594736 0.883885
000050 c1 e8 30 3f c5 b5 47 3f 18 cd 1a 3f f0 db 40 3f
       0.69105154 0.78011733 0.604692 0.753356
000060 a6 74 31 3f 35 a8 62 3f 6b 56 6c 3f 74 d5 41 3f
       0.69318616 0.88537914 0.92319363 0.7571633
000070 1e a8 4d 3f 43 8d 4d 3f 0a 52 59 3f 36 48 30 3f
       0.8033465 0.80293673 0.84890807 0.68860185

feature_extractor.dense_blocks.0.0.dense_layers.0.point_conv.post_conv.1.bias f4 [32]
000000 4d b9 2f 3e 69 52 f0 be 91 6b 09 bd ac 04 23 3d
       0.1716053 -0.46937874 -0.03354985 0.039799377
000010 a1 5b ba be 37 c9 dd bd a4 df 21 bf c7 8e 90 bd
       -0.36398032 -0.10829394 -0.63231874 -0.070584826
000020 00 e2 6b be 33 2c 38 be 85 ea aa 3d b8 b0 83 be
       -0.23035431 -0.1798561 0.08345512 -0.25720763
000030 cd 67 0c bd 99 fb cf bd b5 69 d9 bc b5 e2 84 bc
       -0.03427868 -0.1015541 -0.026539663 -0.016221384
000040 8a db 90 be f5 3c 1f bd c9 c7 ed 3c ac 43 19 bf
       -0.28292495 -0.038876493 0.029025929 -0.59868884
000050 81 54 2c be 4a 46 be bd cd 74 0f bf 16 e0 c0 be
       -0.1682911 -0.0929075 -0.560376 -0.37670964
000060 c8 d2 b3 be 45 48 43 3c 2b 75 bd bc fe 6e 08 be
       -0.3512175 0.011919086 -0.02312716 -0.1332359
000070 97 b6 1d be ec a3 47 bf 68 44 c1 3c 0a 96 0e bf
       -0.15401684 -0.779845 0.023592189 -0.5569769

feature_extractor.dense_blocks.0.0.dense_layers.0.point_conv.post_conv.1.running_mean f4 [32]
000000 85 0b 04 bf 0a 51 1e 3e 1a e9 e9 bd 83 e5 b5 bc
       -0.5158008 0.15460601 -0.11421414 -0.022204166
000010 60 27 a8 be 60 63 d4 be 46 87 96 3d c1 f6 9d bb
       -0.3284254 -0.41482067 0.0735002 -0.004820675
000020 47 f6 f7 bb 5e 2a 20 bf bd 18 09 bf 5a c3 14 bf
       -0.0075672003 -0.6256465 -0.5355337 -0.5811058
000030 e2 3f 24 bf f1 d2 73 be 56 f5 2f bf 9f f8 45 bd
       -0.6415998 -0.23810937 -0.6873373 -0.048332807
000040 d6 c6 c1 be 86 bc 8c be 62 ef 27 be ef f2 4d be
       -0.37847012 -0.27487582 -0.16399911 -0.20112203
000050 76 f1 a1 bd 1f a1 86 be ff a5 3f bd 9a 44 3c be
       -0.07907383 -0.262948 -0.046789166 -0.18385544
000060 0f cd b2 be 3e 11 1b bf b6 d2 7e be bc 9c 10 bf
       -0.34922072 -0.60573184 -0.24885067 -0.5648916
000070 19 ed ed be bd 4a ab be 5b f4 ac be 6c 55 9f be
       -0.46469954 -0.33455458 -0.33780178 -0.3111986

feature_extractor.dense_blocks.0.0.dense_layers.0.point_conv.post_conv.1.running_var f4 [32]
000000 8b d9 56 3f 6c f2 86 3e c4 9f f9 3e d0 72 69 3e
       0.83925694 0.26356828 0.48754704 0.22797704
000010 fd 8e 97 3e e9 c5 b8 3e 98 4b 7b 3e bf c6 8e 3e
       0.2960128 0.36088493 0.24540555 0.27886006
000020 1d de bc 3e 98 a0 f3 3e cb ed 02 3f e9 3f dd 3e
       0.3688821 0.4758346 0.51144093 0.43212822
000030 d0 1b 37 3f bb 90 95 3e 15 09 20 3f 28 1a ef 3e
       0.71526814 0.29211983 0.6251386 0.46699643
000040 68 23 1b 3f 2f 90 a5 3e d1 dd 9a 3e 58 bf 48 3e
       0.606009 0.32336566 0.30247357 0.19604242
000050 d5 67 1b 3f f1 7f d6 3e 24 5b 8b 3e 87 4d 56 3e
       0.6070531 0.41894487 0.27217972 0.20928012
000060 e4 31 94 3e de 01 88 3e 28 a3 29 3f 3c 7b 0e 3f
       0.28944314 0.26563925 0.6626458 0.5565679
000070 61 f9 7b 3e 34 72 11 3e b8 0d 0a 3f e6 0b 85 3e
       0.24606849 0.14203721 0.53927183 0.2598564
