pretrained_model/pu1k/ckpt/ckpt-epoch-60.pth (torch, 401807 bytes, 247 tensors)

feature_extractor.conv_init.0.weight f4 [32, 3, 1]
-0.016916962 0.011890998 -1.4649389 -0.23828086 -0.07430915 -0.7299278 -0.18350069 0.25390422
0.30637833 0.41803396 0.50746477 -0.44628796 0.040465944 -0.016189516 1.269471 -0.61022544
0.46804014 -0.5173932 0.019231165 0.43210676 0.39093253 0.16149706 -0.6265091 -0.32939118
-0.8414023 -0.091657005 0.18708089 -0.37191772 0.6233523 0.624957 -0.38195026 0.34970242
-0.31567156 -0.10547653 0.028591966 -1.0279849 -0.014265407 0.9626016 0.109225035 0.2717563
0.26460734 0.41600606 0.2686812 -0.3287867 -0.43873292 -0.0736961 0.028309789 1.2073331
0.41875175 0.5177642 0.40644893 0.011243926 -0.8571556 -0.09421333 0.98159885 0.10480085
-0.21576124 -0.2548128 0.32085192 0.43007255 0.43745023 -0.33259046 0.36778125 0.32838327
0.37592375 0.3038016 -0.3267169 0.39189044 0.515848 0.5480154 -0.42358008 0.46408373
-0.012467414 0.9340581 0.10207789 -0.35642034 -0.42245808 -0.337154 -0.46327725 -0.646468
-0.49603325 -0.4556395 -0.5522499 0.48536104 -0.009486974 0.043857295 0.70015216 0.55697286
0.52471644 -0.1560585 0.4567047 -0.11702162 -0.36633793 -0.01584971 0.6681837 0.15822165
00000000: 7195 8abc 76d2 423c 1e83 bbbf e6ff 73be
00000010: 652f 98bd 8cdc 3abf 9be7 3bbe bcff 813e
00000020: 9fdd 9c3e 8c08 d63e 36e9 013f db7f e4be
00000030: 9ebf 253d e09f 84bc 077e a23f bc37 1cbf
00000040: f5a2 ef3e e173 04bf ad8a 9d3c 193d dd3e
00000050: 4f28 c83e 7c5f 253e e662 20bf f6a5 a8be
00000060: 2466 57bf abb6 bbbd 2292 3f3e 006c bebe
00000070: 0494 1f3f 2ffd 1f3f fc8e c3be 320c b33e
00000080: b49f a1be 1404 d8bd b339 ea3c 0295 83bf
00000090: 74b9 69bc 0f6d 763f 60b1 df3d a423 8b3e
000000a0: 9d7a 873e bffe d43e 9590 893e bb56 a8be
000000b0: 9aa1 e0be fbed 96bd eee9 e73c e489 9a3f
000000c0: a166 d63e 328c 043f 131a d03e 7238 383c
000000d0: 8d6e 5bbf ebf2 c0bd 104a 7b3f d4a1 d63d
000000e0: 84f0 5cbe d376 82be b446 a43e 7832 dc3e
000000f0: 7af9 df3e 4c49 aabe d34d bc3e da21 a83e
00000100: 1479 c03e e28b 9b3e 7047 a7be dda5 c83e
00000110: 9d0e 043f bd4a 0c3f 7ddf d8be 629c ed3e
00000120: 2044 4cbc 6f1e 6f3f 360e d13d ba7c b6be
00000130: 6d4c d8be 739f acbe ad32 edbe ed7e 25bf
00000140: 12f8 fdbe 9549 e9be 4060 0dbf 3e81 f83e
00000150: 416f 1bbc b5a3 333d 2c3d 333f c695 0e3f
00000160: d153 063f cdcd 1fbe 33d5 e93e 08a9 efbd
00000170: a590 bbbe 40d7 81bc 160e 2b3f db04 223e

feature_extractor.conv_init.0.bias f4 [32]
0.45258978 -0.48606881 -0.29455817 -0.056077957 0.40450886 -0.49628112 -0.14821304 -0.02682354
-0.2200795 0.49317142 0.48064184 0.18728425 0.17864044 0.21506901 0.33774936 0.38929924
-0.49610758 0.3551567 -0.53537226 0.28517583 0.42901447 0.167541 0.5276772 0.38904846
0.21527436 0.18939169 -0.5005215 0.4567101 -0.14378707 0.39208353 0.0013976649 0.35379028
00000000: d9b9 e73e 03de f8be 54d0 96be 00b2 65bd
00000010: c91b cf3e 8f18 febe 29c5 17be 0abd dbbc
00000020: 855c 61be f780 fc3e b016 f63e 71c7 3f3e
00000030: 85ed 363e 0d3b 5c3e 7ced ac3e 3b52 c73e
00000040: d001 febe 19d7 b53e 280e 09bf 9102 923e
00000050: c9a7 db3e de8f 2b3e da15 073f 5c31 c73e
00000060: e270 5c3e e5ef 413e 2d22 00bf e8d5 e93e
00000070: eb3c 13be 2cbf c83e da31 b73a 0024 b53e

feature_extractor.conv_init.1.weight f4 [32]
0.61560464 0.40929115 0.32907948 0.79300505 0.71195674 1.1711652 0.43063977 0.27601627
0.67903143 0.45304 0.31124482 0.2588077 0.55774254 0.4276751 0.8895265 0.27013788
0.7058637 0.7805013 0.69267774 0.6832741 0.9237901 0.4988649 0.6948084 0.66201824
0.66521025 0.7566444 0.32842013 0.767758 0.40586135 0.2653933 0.40560412 0.35897994
00000000: 4498 1d3f 9c8e d13e 1b7d a83e 6102 4b3f
00000010: cc42 363f bee8 953f d17c dc3e 0152 8d3e
00000020: 01d5 2d3f dcf4 e73e 7b5b 9f3e 7182 843e
00000030: 37c8 0e3f 3bf8 da3e 02b8 633f 834f 8a3e
00000040: 7cb3 343f efce 473f 5453 313f 0deb 2e3f
00000050: 827d 6c3f 386b ff3e f7de 313f 077a 293f
00000060: 384b 2a3f 73b3 413f af26 a83e ca8b 443f
00000070: 0fcd cf3e a1e1 873e 58ab cf3e 38cc b73e

feature_extractor.conv_init.1.bias f4 [32]
0.023474857 -0.5387739 -0.7408261 0.024764838 -0.021759706 0.07175321 -0.92144656 -0.30558586
-0.047088765 -0.7649925 -0.32320228 0.006782595 -0.047879227 -0.75577503 0.124250166 -0.011227735
0.008442438 0.067619674 0.052009147 -0.09321178 -0.060652554 -0.0077979304 -0.09150811 -0.035238903
-0.052639227 0.004498234 -0.007211684 -0.019445071 -0.71199095 -0.36927763 -0.53199214 -0.6141386
00000000: 584e c03c 16ed 09bf c7a6 3dbf a1df ca3c
00000010: 6941 b2bc 59f3 923d ece3 6bbf c075 9cbe
00000020: 26e0 40bd 8cd6 43bf c57a a5be 8840 de3b
00000030: 021d 44bd 797a 41bf df76 fe3d 89f4 37bc
00000040: 2752 0a3c 2f7c 8a3d 8b07 553d d1e5 bebd
00000050: d06e 78bd c885 ffbb 9b68 bbbd ab56 10bd
00000060: 3b9c 57bd ec65 933b fd4f ecbb 454b 9fbc
00000070: 0a45 36bf f511 bdbe a330 08bf 3038 1dbf

feature_extractor.conv_init.1.running_mean f4 [32]
0.4528552 -0.4862842 -0.29424304 -0.05587933 0.40492415 -0.49727538 -0.14781334 -0.02695484
-0.22042161 0.49306476 0.48063514 0.1868262 0.17853159 0.21509632 0.33802205 0.38963172
-0.49543676 0.35509896 -0.5349423 0.2854884 0.42991772 0.16769125 0.52784306 0.38964933
0.21515697 0.18838263 -0.49988973 0.456341 -0.14384048 0.39263025 0.0016576083 0.3539538
00000000: a3dc e73e 3efa f8be 06a7 96be b9e1 64bd
00000010: 3852 cf3e e19a febe 615c 17be 66d0 dcbc
00000020: 34b6 61be fc72 fc3e cf15 f63e 5e4f 3f3e
00000030: fcd0 363e 3642 5c3e 3a11 ad3e cf7d c73e
00000040: e3a9 fdbe 88cf b53e fbf1 08bf 892b 923e
00000050: 2d1e dc3e 41b7 2b3e b920 073f 1e80 c73e
00000060: 1c52 5c3e 60e7 403e 8cf1 ffbe 87a5 e93e
00000070: eb4a 13be d506 c93e 1b44 d93a 6f39 b53e

feature_extractor.conv_init.1.running_var f4 [32]
0.27462137 0.07603667 0.024453532 0.082144044 0.20654166 0.11128034 0.04302907 0.06695538
0.09796125 0.116711356 0.04765136 0.13688777 0.119884975 0.040397998 0.047489174 0.18747362
0.077676795 0.09498213 0.1332186 0.044946596 0.056629412 0.043603048 0.06709708 0.090052284
0.11286257 0.05351569 0.11200658 0.097324245 0.06299366 0.07923519 0.0460648 0.060125645
00000000: 2c9b 8c3e 1db9 9b3d c652 c83c 233b a83d
00000010: a87f 533e f2e6 e33d 403f 303d e71f 893d
00000020: e89f c83d 5d06 ef3d 132e 433d 4f2c 0c3e
00000030: 4186 f53d 5f78 253d 0284 423d 16f9 3f3e
00000040: 0315 9f3d fe85 c23d 756a 083e ec19 383d
00000050: 3ef4 673d 1c99 323d 326a 893d 556d b83d
00000060: 7e24 e73d 4533 5b3d b563 e53d ef51 c73d
00000070: d202 813d 0f46 a23d 72ae 3c3d 4f46 763d

feature_extractor.dense_blocks.0.0.dense_layers.0.conv_bottle.0.weight f4 [32, 32, 1]
0.18646188 -0.9292223 0.20750952 0.20142552 -0.5669917 0.4387043 0.274834 -0.20057817
0.049742233 0.40653476 0.2691746 0.21485548 -0.1018076 0.10849461 0.28255692 -0.09197973
0.133083 0.14243819 0.09458775 0.011351205 -0.27448916 -0.3725388 -0.17892762 -0.28860512
-0.0013120823 0.08050736 -0.020845974 -0.054734875 0.0011991783 0.049890943 -0.0012367581 0.16388239
-0.09325536 -0.49254793 0.39332885 -0.22149181 -0.06383037 -0.25050628 0.74511796 0.22661583
-0.24401973 0.29933643 -0.23815595 -0.05094708 0.048477404 0.25845864 0.5472326 -0.14891152
0.02905913 0.5582553 -0.19754994 0.072334096 -0.09440477 0.05875754 0.26427534 0.0675139
0.10630156 -0.14957398 0.013061677 -0.177344 -0.030545108 -0.30819649 0.3828565 0.20235816
-0.13193044 -0.10916724 0.7549475 0.5225267 -0.019757327 0.26411188 0.74557793 -0.07631665
0.16372918 0.3932582 -0.051551335 -0.10017873 0.22244863 0.094366096 -0.39925826 0.043811362
0.3479192 -0.42494282 0.2042377 -0.019256447 -0.095931135 -0.026980422 0.12625623 -0.23675591
0.2381117 0.014506837 -0.16667312 0.074972264 0.15759575 0.17297721 -0.08045607 0.54690516
-0.22585042 0.073122926 0.5940309 -0.0940528 0.26933992 -0.23835939 0.7584785 0.20273584
0.011520145 0.13423844 0.07178259 -0.06587641 -0.3763477 0.37721038 -0.062495537 0.15115939
0.030554451 -0.27748454 -0.24666908 -0.09205224 0.15544574 -0.13776526 0.09417161 0.2225661
-0.2492824 0.03384504 -0.11608606 0.7914869 0.4474425 0.15014431 -0.11428108 -0.1207152
-0.030635795 0.05192256 0.9285049 0.05421776 -0.2413908 -0.07868392 0.57236505 0.009549631
-0.37474027 -0.018591208 -0.33992782 0.038233694 0.025549509 -0.31117043 -0.24476923 -0.14235148
-0.14783704 -0.48224783 0.113158286 -0.02596042 -0.22566816 -0.17878553 -0.19343947 -0.33687946
-0.004070991 -0.38218823 -0.3036132 -0.47928062 0.29268107 -0.14760773 -0.14282072 -0.6586436
-0.09712495 -0.8122218 0.7120457 -0.20573887 -0.15003307 0.6155441 0.7797217 -0.06884724
0.2906859 0.29669142 0.32679877 0.2929251 -0.118631035 0.21396993 0.050051227 -0.06741135
-0.35352188 -0.11355466 -0.2747594 0.35119635 -0.2601032 -0.23504461 -0.12887117 -0.07181727
-0.15314433 0.19951673 -0.12635839 0.13147107 0.1576266 -0.076247744 -0.24878705 0.22263084
-0.22296119 -0.47016546 0.60622823 0.16725112 -0.10423806 0.14507744 1.3861464 0.19101775
0.024052639 0.87727076 -0.012011692 -0.16474187 0.21748102 0.5399881 -0.065526195 0.042872753
0.12849984 -0.006847643 0.06445681 0.25771376 -0.005856071 0.15696405 0.3902136 0.21844588
0.1687505 -0.22463183 -0.10081526 0.097868145 0.3562074 -0.24880111 -0.34564173 0.186556
-0.06825964 -0.18146548 0.7597027 0.20446186 0.12325227 0.056582566 1.4855057 0.23594013
0.07252016 0.63166463 0.09700585 -0.25381184 0.18565547 0.44670883 0.30344036 -0.09539415
0.10940456 0.18099555 0.2478747 0.10431997 0.050281134 -0.063138366 0.39968914 0.16138576
0.22547773 0.099875264 0.3574796 0.087352574 0.36478618 -0.26414648 -0.64341635 0.28631243
00000000: ddef 3e3e 83e1 6dbf 607d 543e 7e42 4e3e
00000010: 5e26 11bf da9d e03e 0bb7 8c3e 5d64 4dbe
00000020: 83be 4b3d 5325 d03e 41d1 893e 1303 5c3e
00000030: 8180 d0bd 6c32 de3d 4dab 903e de5f bcbd
00000040: e946 083e 51db 113e 39b7 c13d 68fa 393c
00000050: d889 8cbe 68bd bebe cd38 37be 0dc4 93be
00000060: 2dfa abba 0be1 a43d 2dc5 aabc ad31 60bd
00000070: bf2d 9d3a 725a 4c3d b71a a2ba c9d0 273e
00000080: abfc bebd 3e2f fcbe 6662 c93e c0ce 62be
00000090: 7fb9 82bd 5c42 80be 0dc0 3e3f fb0d 683e
000000a0: 4fe0 79be a042 993e 27df 73be e3ad 50bd
000000b0: 3e90 463d b154 843e 7017 0c3f 437c 18be
000000c0: 6a0d ee3c d2e9 0e3f 884a 4abe e623 943d
000000d0: 4a57 c1bd bfab 703d 194f 873e ba44 8a3d
000000e0: a2b4 d93d ec29 19be a500 563c aa99 35be
000000f0: bc39 fabc eecb 9dbe c405 c43e fa36 4f3e
00000100: c618 07be 1393 dfbd 3d44 413f 4fc4 053f
00000110: 1eda a1bc ac39 873e 32de 3e3f e74b 9cbd
00000120: 9fa8 273e 2459 c93e 7e27 53bd 822a cdbd
00000130: 93c9 633e 0343 c13d 946b ccbe 8b73 333d
00000140: 7722 b23e 1b92 d9be b023 513e b2bf 9dbc
00000150: 8b77 c4bd 0c06 ddbc 5049 013e 2470 72be
00000160: 8ed3 733e 16ae 6d3c 5cac 2abe 0f8b 993d
00000170: c860 213e f020 313e 27c6 a4bd fa01 0c3f
00000180: 5545 67be 79c1 953d 6912 183f c19e c0bd
00000190: ece6 893e 7c14 74be a62b 423f fc99 4f3e
000001a0: febe 3c3c cd75 093e c002 933d 36ea 86bd
000001b0: a5b0 c0be b821 c13e 52fb 7fbd 87c9 1a3e
000001c0: 544d fa3c 7412 8ebe d296 7cbe e385 bcbd
000001d0: 2b2d 1f3e 5612 0dbe 0cdd c03d 5ee8 633e
000001e0: e343 7fbe 19a1 0a3d 87be edbd e39e 4a3f
000001f0: 2f17 e53e 6ebf 193e 330c eabd 8839 f7bd
00000200: ebf7 fabc c0ac 543d 7fb2 6d3f 7113 5e3d
00000210: 262f 77be 0925 a1bd 8486 123f 0e76 1c3c
00000220: f5dd bfbe 974c 98bc 050b aebe ef9a 1c3d
00000230: 344d d13c bb51 9fbe c9a4 7abe 96c4 11be
00000240: 9862 17be 30e9 f6be 88bf e73d f2aa d4bc
00000250: 8e15 67be 8e13 37be ff14 46be 777b acbe
00000260: f365 85bb 2dae c3be 3073 9bbe 4564 f5be
00000270: 4bda 953e 7b26 17be 983f 12be de9c 28bf
00000280: 72e9 c6bd c5ed 4fbf a148 363f 36ad 52be
00000290: 45a2 19be 4c94 1d3f d79b 473f c8ff 8cbd
000002a0: c8d4 943e f0e7 973e 2b52 a73e 47fa 953e
000002b0: d4f4 f2bd ef1a 5b3e 8402 4d3d f60e 8abd
000002c0: d200 b5be 588f e8bd 44ad 8cbe 02d0 b33e
000002d0: 3f2c 85be 89af 70be cef6 03be ef14 93bd
000002e0: ded1 1cbe 1d4e 4c3e 1864 01be 5aa0 063e
000002f0: de68 213e c727 9cbd 08c2 7ebe 57f9 633e
00000300: f04f 64be 87b9 f0be c631 1b3f e143 2b3e
00000310: c47a d5bd 2e8f 143e 3f6d b13f 289a 433e
00000320: 0a0a c53c d194 603f b0cc 44bc 18b2 28be
00000330: 58b3 5e3e a93c 0a3f 9932 86bd 579b 2f3d
00000340: 7695 033e 3162 e0bb ef01 843d 0ff3 833e
00000350: 49e4 bfbb 2fbb 203e 14ca c73e 47b0 5f3e
00000360: eecc 2c3e e305 66be 3b78 cebd 186f c83d
00000370: d160 b63e b8c5 7ebe f4f7 b0be 8908 3f3e
00000380: b6cb 8bbd 16d2 39be e07b 423f 735e 513e
00000390: b06b fc3d 1fc3 673d 0d25 be3f 4a9a 713e
000003a0: 7385 943d c6b4 213f 01ab c63d a0f3 81be
000003b0: 781c 3e3e 05b7 e43e 895c 9b3e 025e c3bd
000003c0: 7f0f e03d e656 393e ded2 7d3e b5a5 d53d
000003d0: 97f3 4d3d b04e 81bd 0ea4 cc3e 4f42 253e
000003e0: a2e3 663e 678b cc3d 9107 b73e e8e5 b23d
000003f0: 41c5 ba3e 353e 87be efb6 24bf 8b97 923e

feature_extractor.dense_blocks.0.0.dense_layers.0.conv_bottle.0.bias f4 [32]
-0.11651991 -0.1111021 0.15096603 -0.1256755 0.069995075 0.086035684 -0.037555162 0.07799795
0.0886946 0.11856802 0.12618001 0.13379386 -0.052530784 -0.1320866 0.0026061882 0.13834094
0.12194298 0.08025527 0.028842453 -0.07198107 0.07044369 -0.13293505 0.035771433 -0.15514399
0.03964283 0.12308905 0.118833795 -0.06841575 0.18024443 -0.079931825 0.16419126 -0.023280688
00000000: fea1 eebd 7f89 e3bd d796 1a3e 14b1 00be
00000010: 9459 8f3d 7a33 b03d 71d3 19bd 64bd 9f3d
00000020: 84a5 b53d cad3 f23d 5535 013e 4201 093e
00000030: 852a 57bd b641 07be 95cc 2a3b 3fa9 0d3e
00000040: 3ebd f93d e05c a43d 0247 ec3c d06a 93bd
00000050: c844 903d 2020 08be 1185 123d 11de 1ebe
00000060: 8560 223d 1d16 fc3d 225f f33d 8f1d 8cbd
00000070: ff91 383e 4cb3 a3bd c121 283e 24b7 bebc

feature_extractor.dense_blocks.0.0.dense_layers.0.conv_bottle.1.weight f4 [32]
0.6209172 0.8276498 1.043995 0.90498435 0.9197016 1.1289303 1.0955329 0.9164014
0.9287177 1.060765 1.1291611 1.1542989 0.7605247 0.9463686 0.6447401 1.0304677
0.9892103 1.1818746 1.227644 0.70784354 1.0416592 0.9150272 1.0733103 0.8734692
0.967408 1.3174376 1.1668439 1.370639 0.9195697 0.92394716 0.7314754 0.8027085
00000000: 6ef4 1e3f dbe0 533f a1a1 853f 0ead 673f
00000010: 9071 6b3f ca80 903f 6c3a 8c3f 4899 6a3f
00000020: 71c0 6d3f 26c7 873f 5a88 903f 11c0 933f
00000030: bfb1 423f 3645 723f b00d 253f 5ee6 833f
00000040: e33c 7d3f ab47 973f 7023 9d3f 3c35 353f
00000050: 1755 853f 393f 6a3f 3b62 893f ad9b 5f3f
00000060: 0da8 773f cca1 a83f 245b 953f 1971 af3f
00000070: eb68 6b3f cd87 6c3f f941 3b3f 4e7e 4d3f

feature_extractor.dense_blocks.0.0.dense_layers.0.conv_bottle.1.bias f4 [32]
0.62808514 -0.23237726 0.50460535 -0.21444 -0.35697883 0.29633504 -0.66621983 -0.9165953
0.045010213 -0.32450047 0.3127098 0.08498948 -0.018630747 0.15033863 0.92578286 0.23449449
0.48661676 -0.2129788 0.5029356 0.29105183 0.19480343 0.28452432 0.5997423 0.21804868
0.7161644 0.15592723 0.2861401 0.10442347 0.1413956 0.2618867 -0.10225737 -0.19304271
00000000: 30ca 203f 4ef4 6dbe d12d 013f 2996 5bbe
00000010: eec5 b6be 3ab9 973e 628d 2abf fda5 6abf
00000020: a15c 383d ed24 a6be 801b a03e f70e ae3d
00000030: 829f 98bc 5ff2 193e 1b00 6d3f 531f 703e
00000040: d525 f93e 1d17 5abe 63c0 003f bf04 953e
00000050: 8d7a 473e 2cad 913e b688 193f 2748 5f3e
00000060: 8d56 373f 63ab 1f3e f580 923e f9db d53d
00000070: 02ca 103e 0316 863e 506c d1bd fdac 45be

feature_extractor.dense_blocks.0.0.dense_layers.0.conv_bottle.1.running_mean f4 [32]
0.02658376 -0.046209462 0.34009668 -0.25047818 -0.97591025 0.07175769 0.29608735 0.8386174
0.33240795 0.20699796 -0.25984967 0.021199893 -0.17473052 -0.3519385 -0.35994667 -0.71171063
0.44907844 0.5763865 -0.8216862 0.1860837 0.043532778 -0.97966295 0.41469315 -0.47895294
-0.024793664 0.13680534 0.2556709 -1.3573366 -0.6843435 -0.15350997 -0.19532198 -0.13022985
00000000: 2fc6 d93c 2246 3dbd 2721 ae3e ad3e 80be
00000010: 41d5 79bf b2f5 923d c398 973e a1af 563f
00000020: 6031 aa3e 46f7 533e 040b 85be 66ab ad3c
00000030: 8fec 32be 4831 b4be ee4a b8be ab32 36bf
00000040: 9ced e53e 118e 133f 075a 52bf ba8c 3e3e
00000050: 6d4f 323d 31cb 7abf a952 d43e 5239 f5be
00000060: 151c cbbc b316 0c3e 4ce7 823e 35bd adbf
00000070: 2331 2fbf b831 1dbe 7c02 48be f95a 05be

feature_extractor.dense_blocks.0.0.dense_layers.0.conv_bottle.1.running_var f4 [32]
0.67196876 0.2692078 0.7006752 0.5552556 0.507324 0.6968857 0.32070872 0.12221952
0.37467602 0.17879756 0.6011361 0.7159642 0.28289327 0.64699066 0.67207146 0.6934988
0.60969543 0.40158606 0.24255382 0.4587508 0.52641445 0.20071673 0.6415028 1.0624142
0.77087134 0.693164 0.5578021 0.4698604 0.23219725 0.97770923 0.6869219 0.29496792
00000000: 2506 2c3f 9bd5 893e 735f 333f 3b25 0e3f
00000010: fcdf 013f 1a67 323f ef33 a43e 3a4e fa3d
00000020: 89d5 bf3e b516 373e 0ee4 193f 6e49 373f
00000030: 63d7 903e 2ea1 253f e00c 2c3f 2389 313f
00000040: 0015 1c3f b09c cd3e 0760 783e 63e1 ea3e
00000050: 19c3 063f b088 4d3e 8739 243f 30fd 873f
00000060: d357 453f 3273 313f 1ecc 0e3f 8b91 f03e
00000070: 1ec5 6d3e 274b 7a3f 1dda 2f3f 0906 973e

feature_extractor.dense_blocks.0.0.dense_layers.0.point_conv.conv_delta.0.weight f4 [32, 3, 1, 1]
-0.34287515 0.5378207 0.3953306 -0.2808738 -0.2385655 -0.28153008 -0.57605505 0.30659303
-0.32008103 0.59226286 -0.009448666 -0.48576835 0.54896545 -0.3098284 -0.17053482 0.39115906
0.05809994 0.57093745 -0.7281992 -0.09437138 0.34660584 0.720842 0.3307117 0.6268105
0.23463053 0.282669 -0.14958881 0.528225 -0.22138122 0.5899407 0.47389817 -0.38705707
-0.4629803 -0.54196084 -0.569145 0.29428455 -0.348476 -0.54739636 -0.022770151 0.16252625
-0.52484274 -0.70449007 0.076973826 -0.8110076 0.11731442 -0.04204544 0.13493909 0.5706742
-0.2602681 0.71056366 0.08994486 -0.13619246 -0.1355891 -0.6400345 -0.4631478 -0.46817902
0.33058164 0.40214863 -0.29193693 -0.33587098 0.34908196 -0.4043995 0.26947916 0.25218126
0.19677584 -0.16175856 -0.14158179 0.62385833 -0.25365418 -0.6767391 -0.30583692 -0.35602137
0.5258637 -0.1125154 -0.37880626 -0.72740173 0.21363294 0.120055966 -0.43240705 -0.16554323
-0.5867226 -0.12202091 0.38104525 0.48896217 -0.11517133 0.57489336 -0.25323427 0.5662707
-0.15305404 0.48457548 -0.3462442 0.18431507 -0.46709895 0.26005024 -0.7918699 0.1038169
00000000: 558d afbe 9eae 093f c668 ca3e b1ce 8fbe
00000010: 844a 74be b624 90be 5878 13bf c3f9 9c3e
00000020: a9e1 a3be 8a9e 173f 94ce 1abc a1b6 f8be
00000030: 0089 0c3f d4a1 9ebe aea0 2ebe 0046 c83e
00000040: 34fa 6d3d f528 123f 436b 3abf c845 c1bd
00000050: 5276 b13e 1a89 383f 0b53 a93e a776 203f
00000060: fc42 703e feb9 903e cf2d 19be c139 073f
00000070: c2b1 62be 5b06 173f c8a2 f23e 582c c6be
00000080: c10b edbe f2bd 0abf 7db3 11bf 77ac 963e
00000090: 726b b2be 2b22 0cbf 7888 babc 486d 263e
000000a0: 185c 06bf 7659 34bf 74a4 9d3d 329e 4fbf
000000b0: 8b42 f03d d737 2cbd 792d 0a3e b417 123f
000000c0: dc41 85be 80e7 353f 0335 b83d 0976 0bbe
000000d0: ded7 0abe 4dd9 23bf b521 edbe 29b5 efbe
000000e0: ff41 a93e 6de6 cd3e c278 95be 48f7 abbe
000000f0: dfba b23e 740d cfbe 2cf9 893e e71d 813e
00000100: 9b7f 493e 09a4 25be d1fa 10be 2eb5 1f3f
00000110: f6de 81be c63e 2dbf a896 9cbe 6f48 b6be
00000120: 019f 063f 796e e6bd e5f2 c1be 0037 3abf
00000130: 98c2 5a3e e7df f53d 7564 ddbe 2a84 29be
00000140: 7433 16bf 19e6 f9bd 5d18 c33e 4059 fa3e
00000150: f2de ebbd 362c 133f eca7 81be 1ef7 103f
00000160: 33ba 1cbe 471a f83e eb46 b1be 17bd 3c3e
00000170: 9827 efbe 4e25 853e fcb7 4abf f49d d43d

feature_extractor.dense_blocks.0.0.dense_layers.0.point_conv.conv_delta.0.bias f4 [32]
-0.41202456 0.52234745 -0.32433915 0.60146964 -0.045972504 -0.46933374 0.02857246 0.2450544
-0.675291 0.5590663 0.45511544 -0.13453847 -0.4150893 -0.03551304 -0.49380806 0.24696621
-0.13646038 0.03262636 -0.40968466 -0.12302138 -0.21394949 0.11762156 -0.81066155 0.17271373
-0.26679748 0.069216095 0.437392 -0.20511766 -0.08097558 0.15072364 -0.18077017 -0.71671116
00000000: e2f4 d2be 90b8 053f c80f a6be eaf9 193f
00000010: aa4d 3cbd 834c f0be cb10 ea3c 8aef 7a3e
00000020: dfdf 2cbf f81e 0f3f e404 e93e 74c4 09be
00000030: 9686 d4be 1f76 11bd 69d4 fcbe b6e4 7c3e
00000040: 45bc 0bbe 38a3 053d 30c2 d1be a2f2 fbbd
00000050: 9315 5bbe 93e3 f03d 8487 4fbf dedb 303e
00000060: ae99 88be 2bc1 8d3d d8f1 df3e 5d0a 52be
00000070: 86d6 a5bd 4c57 1a3e d11b 39be 627a 37bf

feature_extractor.dense_blocks.0.0.dense_layers.0.point_conv.conv_delta.1.weight f4 [32]
0.9138572 0.90365076 1.0145619 1.2181991 0.7960042 0.99825096 0.9681134 0.7800249
0.9623306 0.970062 0.88530844 1.0729681 0.9844979 1.1912208 0.9693147 1.2403027
1.0282081 0.9773196 0.93437153 1.0010093 0.7529322 0.9948954 1.2665526 1.2589022
1.0399178 0.8496435 1.1048849 0.88377255 0.86275077 0.8278979 0.94946384 1.3443761
00000000: 8cf2 693f a855 673f 2add 813f f3ed 9b3f
00000010: eec6 4b3f 608d 7f3f 48d6 773f b6af 473f
00000020: 4c5b 763f fc55 783f 93a3 623f 0557 893f
00000030: 0e08 7c3f ec79 983f 0225 783f 3dc2 9e3f
00000040: 539c 833f 9e31 7a3f f932 6f3f 1321 803f
00000050: 2ac0 403f 77b1 7e3f 651e a23f b523 a13f
00000060: 071c 853f 3d82 593f de6c 8d3f eb3e 623f
00000070: 3cdd 5c3f 1ef1 533f 1010 733f 8414 ac3f

feature_extractor.dense_blocks.0.0.dense_layers.0.point_conv.conv_delta.1.bias f4 [32]
-0.09478194 0.39634374 0.16723491 0.16762212 -0.05700335 0.25545692 0.10100696 -0.2323905
0.23388122 0.013691612 0.27045617 0.24142595 0.20798534 0.113094755 -0.06769194 0.32045567
0.26053205 -0.003721075 -0.008082835 0.10654073 0.35032135 0.12974365 0.22919357 0.08519037
0.19520907 0.30136877 0.19254649 0.21184422 0.14973624 0.24865164 0.18795419 0.36204937
00000000: 091d c2bd 91ed ca3e a13f 2b3e 22a5 2b3e
00000010: 587c 69bd 40cb 823e bddc ce3d c6f7 6dbe
00000020: 8f7e 6f3e c852 603c 3b79 8a3e 5d38 773e
00000030: 1cfa 543e 399e e73d 12a2 8abd c412 a43e
00000040: 7564 853e 47dd 73bb de6d 04bc 0732 da3d
00000050: 525d b33e 85db 043e b8b1 6a3e 4a78 ae3d
00000060: e3e4 473e 024d 9a3e e82a 453e b1ed 583e
00000070: 7554 193e 899e 7e3e 1077 403e 895e b93e

feature_extractor.dense_blocks.0.0.dense_layers.0.point_conv.conv_delta.1.running_mean f4 [32]
-0.41149864 0.52234375 -0.32474288 0.6010653 -0.0458783 -0.4693033 0.029222822 0.24478804
-0.6755367 0.55943197 0.454678 -0.1343279 -0.41490173 -0.03530695 -0.49366236 0.2465223
-0.1362184 0.032278694 -0.41043663 -0.1225631 -0.2138061 0.11744193 -0.8102761 0.17366333
-0.26675585 0.06934334 0.43699348 -0.20477667 -0.08101421 0.15083247 -0.18049935 -0.7173858
00000000: f3af d2be 52b8 053f b344 a6be 6adf 193f
00000010: e2ea 3bbd 8648 f0be b364 ef3c b7a9 7a3e
00000020: f9ef 2cbf ef36 0f3f 8ecb e83e 418d 09be
00000030: 006e d4be 059e 10bd 50c1 fcbe 5870 7c3e
00000040: d67c 0bbe aa36 043d c024 d2be 5d02 fbbd
00000050: fcef 5abe 6585 f03d 416e 4fbf cdd4 313e
00000060: 3994 88be e203 8e3d 9cbd df3e fab0 51be
00000070: c7ea a5bd d473 1a3e d2d4 38be 99a6 37bf

feature_extractor.dense_blocks.0.0.dense_layers.0.point_conv.conv_delta.1.running_var f4 [32]
0.0018272771 0.0007033974 0.0017084893 0.0019194381 0.0013796167 0.0015694023 0.002158795 0.0033321085
0.0005206386 0.0021943797 0.0019112673 0.0023308804 0.0013913388 0.002599308 0.0022200232 0.0011276243
0.00188872 0.0014575182 0.0017963143 0.0011671177 0.0011615013 0.00042499386 0.0015502911 0.0022146115
0.001409705 0.0019062337 0.0018196688 0.0012994596 0.0013352715 0.0018771212 0.0012089133 0.0023004266
00000000: 3f81 ef3a 3364 383a 63ef df3a a895 fb3a
00000010: 41d4 b43a 67b4 cd3a 927a 0d3b 815f 5a3b
00000020: 777b 083a 95cf 0f3b 7d83 fa3a afc1 183b
00000030: 955d b63a 2759 2a3b cf7d 113b cbcc 933a
00000040: ed8e f73a 320a bf3a 4e72 eb3a f9f9 983a
00000050: 843d 983a b6d1 de39 2333 cb3a 0423 113b
00000060: dac5 b83a 97da f93a f481 ee3a a152 aa3a
00000070: 4704 af3a bc09 f63a 6674 9e3a c1c2 163b

feature_extractor.dense_blocks.0.0.dense_layers.0.point_conv.conv_feats.0.weight f4 [32, 32, 1, 1]
0.15648656 0.21859257 -0.07049092 0.021416146 -0.43621662 0.17827617 -0.23062007 -0.35328263
0.1521815 -0.16257037 0.022238709 0.22239034 0.389557 0.4037694 0.27872467 0.07181399
0.23261654 0.0037168937 -0.15444982 0.0724185 0.21634954 -0.23845169 0.36180824 0.062450536
0.5414627 0.06989999 0.19048148 -0.38961157 -0.10763566 0.2929869 0.25764182 0.039140847
0.5246519 0.07743472 -0.1907452 -0.028852474 -0.5596908 0.281615 -0.16066658 0.03485544
0.19199647 0.09658481 0.05709427 0.00041353595 0.29911327 0.2931182 0.055177256 0.26443806
-0.12471001 -0.21027532 0.1360529 0.34658945 0.39068198 -0.17195022 -0.08590967 -0.36286566
0.4844118 0.12881471 -0.09685969 -0.07999818 0.019426849 0.3229984 0.1710894 0.45933643
-0.23392612 -0.0064943302 -0.12503558 0.18278006 -0.33348322 -0.8643214 0.05148581 0.10929663
-0.03217224 0.043140497 -0.18934007 0.09174432 0.3053897 0.09762399 0.23205917 -0.1658675
-0.19955666 0.39967665 -0.21555963 0.06086567 -0.338393 0.20656328 0.49642804 0.3737676
0.3053423 -0.30090907 -0.15678927 -0.016440494 -0.129107 0.10146168 0.002193684 -0.15503918
-0.3556194 0.29376137 -0.075955346 -0.1922301 -0.041077282 -0.36062855 -0.07717891 0.08484651
-0.5084073 -0.14853707 0.061996438 -0.58611685 -0.19958663 -0.23146 0.035674494 0.011369641
0.0236495 0.16665438 -0.4119846 -0.40936357 -0.061596733 -0.036764465 0.14204541 0.22368906
0.04573378 -0.38372782 -0.011564431 -0.25108257 -0.36671108 -0.063665584 -0.8227996 -0.34776592
0.016065627 -0.11567958 0.41180718 0.112359576 -0.51658994 0.040463038 0.27989617 -0.1306305
-0.015048231 -0.012193521 -0.41891694 0.015200153 -0.36081603 -0.21286897 -0.45600972 -0.18443987
0.098198265 -0.15709645 -0.37661445 -0.24268515 0.0948942 -0.28947443 -0.3516094 -0.026642678
-0.49213302 0.35722494 -0.17432345 -0.4249542 -0.26387927 -0.40497094 0.029376784 -0.036919415
-0.33559704 -0.3069899 -0.0002747979 -0.0044152318 -0.0037094275 -0.2960399 0.16312982 0.2585236
-0.09348077 0.095198154 -0.41224673 0.010889342 0.051836796 -0.26487944 0.036506515 -0.2944746
-0.21936668 0.5314669 -0.38638088 -0.24757005 -0.42667797 0.23831601 0.5400625 0.28691974
-0.12150839 -0.05173912 -0.13330875 0.038678017 -0.30199456 -0.025000308 -0.023858942 -0.17880936
0.3300138 0.023792628 -0.22730814 -0.47403356 -0.15346059 0.06609513 0.04001933 0.12624462
-0.48169178 -0.26261044 0.59805214 -0.5388438 0.2207805 -0.21120068 -0.02162478 0.3223842
0.10839745 -0.2402763 -0.28089648 -0.119634785 0.23237449 0.1125676 -0.2708798 -0.16612741
0.28620896 -0.123606324 0.0013701998 -0.014639723 -0.27821347 0.18571033 -0.35840255 0.31526366
0.49085638 -0.11694797 -0.27911025 0.30364776 -0.5219789 0.3027135 -0.09357828 -0.2462606
0.17148848 0.07597947 -0.056774847 0.09441009 0.16874066 0.23327345 0.0013603482 -0.24439202
-0.11280627 -0.13897306 0.14712167 0.34401616 0.35635737 0.068453304 -0.083595924 0.004390129
0.10446437 -0.07423653 -0.16286092 -0.66102356 0.17787541 0.23710066 0.23019333 0.5204567
00000000: 033e 203e bbd6 5f3e 8b5d 90bd ea70 af3c
00000010: c957 dfbe 078e 363e ab27 6cbe 76e1 b4be
00000020: 78d5 1b3e d978 26be f42d b63c 4bba 633e
00000030: 0474 c73e ddba ce3e 00b5 8e3e 3713 933d
00000040: 0833 6e3e 2197 733b 1828 1ebe 2750 943d
00000050: bc8a 5d3e ae2c 74be ee3e b93e 22cc 7f3d
00000060: 4d9d 0a3f ba27 8f3d 940d 433e 2b7b c7be
00000070: 1670 dcbd 6102 963e a1e9 833e 2752 203d
00000080: 964f 063f 1896 9e3d b652 43be 065c ecbc
00000090: e547 0fbf d72f 903e c885 24be 94c4 0e3d
000000a0: b99a 443e 42ce c53d aedb 693d dbcf d839
000000b0: 6025 993e 9713 963e 8c01 623d 6d64 873e
000000c0: f667 ffbd 6a52 57be 7451 0b3e 2c74 b13e
000000d0: 7807 c83e b813 30be 69f1 afbd 87c9 b9be
000000e0: d304 f83e 01e8 033e 605e c6bd 16d6 a3bd
000000f0: 0e25 9f3c 0c60 a53e 0f32 2f3e 252e eb3e
00000100: 548a 6fbe 64ce d4bb 5409 00be b22a 3b3e
00000110: 50be aabe 2b44 5dbf c9e2 523d e9d6 df3d
00000120: 0ac7 03bd 17b4 303d 5de2 41be 72e4 bb3d
00000130: 0a5c 9c3e 16ef c73d eba0 6d3e 2bd9 29be
00000140: 9558 4cbe 6ba2 cc3e aabb 5cbe 484e 793d
00000150: d941 adbe 5385 533e d12b fe3e 785e bf3e
00000160: d355 9c3e c110 9abe 5e8d 20be 37ae 86bc
00000170: a034 04be 24cb cf3d e9c3 0f3b 97c2 1ebe
00000180: bf13 b6be e467 963e 7a8e 9bbd f8d7 44be
00000190: a740 28bd 4ea4 b8be fa0f 9ebd 02c4 ad3d
000001a0: fb26 02bf 1a1a 18be faef 7d3d c10b 16bf
000001b0: 7060 4cbe da03 6dbe 6b1f 123d bb47 3a3c
000001c0: 99bc c13c 72a7 2a3e a5ef d2be 1a98 d1be
000001d0: db4c 7cbd 5696 16bd 5a74 113e bf0e 653e
000001e0: 5853 3b3d f977 c4be bd78 3dbc e58d 80be
000001f0: 8ec1 bbbe 1a63 82bd ffa2 52bf 600e b2be
00000200: 109c 833c 6ae9 ecbd 64d8 d23e c71c e63d
00000210: 3d3f 04bf 92bc 253d 8d4e 8f3e 00c4 05be
00000220: db8c 76bc 55c7 47bc 487c d6be 100a 793c
00000230: e1bc b8be 53fa 59be 1b7a e9be cedd 3cbe
00000240: 2c1c c93d e4dd 20be 9cd3 c0be 7582 78be
00000250: e457 c23d fe35 94be 2606 b4be bf41 dabc
00000260: dcf8 fbbe 30e6 b63e d981 32be 9993 d9be
00000270: 2f1b 87be 5a58 cfbe 95a7 f03c d038 17bd
00000280: 60d3 abbe c82d 9dbe c012 90b9 a6ad 90bb
00000290: de19 73bb 8b92 97be 810b 273e 355d 843e
000002a0: d972 bfbd 40f7 c23d 0112 d3be 3669 323c
000002b0: d252 543d 479e 87be db87 153d 60c5 96be
000002c0: a9a1 60be 370e 083f b7d3 c5be 0183 7dbe
000002d0: 8975 dabe 1d09 743e 8941 0a3f 25e7 923e
000002e0: 64d9 f8bd 66ec 53bd 1782 08be d76c 1e3d
000002f0: 089f 9abe 72cd ccbc d473 c3bc cd19 37be
00000300: 92f7 a83e c2e8 c23c 77c3 68be 87b4 f2be
00000310: c624 1dbe e25c 873d 4feb 233d 4546 013e
00000320: 4ea0 f6be e074 86be f219 193f abf1 09bf
00000330: 4914 623e fe44 58be 7326 b1bc 8b0f a53e
00000340: 7bff dd3d fe0a 76be aad1 8fbe 1503 f5bd
00000350: 94f3 6d3e d889 e63d c2b0 8abe 4e1d 2abe
00000360: fb89 923e 5025 fdbd 4798 b33a 73db 6fbc
00000370: ff71 8ebe d92a 3e3e 8a80 b7be 3d6a a13e
00000380: 8751 fb3e 6b82 efbd 8ae7 8ebe b877 9b3e
00000390: 69a0 05bf 44fd 9a3e f8a5 bfbd bd2b 7cbe
000003a0: ad9a 2f3e 209b 9b3d be8c 68bd 145a c13d
000003b0: 5aca 2c3e 3cdf 6e3e b64d b23a e741 7abe
000003c0: f906 e7bd f44e 0ebe 10a7 163e e322 b03e
000003d0: 7974 b63e 3f31 8c3d 5734 abbd 12db 8f3b
000003e0: 6af1 d53d 5209 98bd 03c5 26be d738 29bf
000003f0: f924 363e 84ca 723e cdb7 6b3e a63c 053f

feature_extractor.dense_blocks.0.0.dense_layers.0.point_conv.conv_feats.0.bias f4 [32]
0.13686316 -0.15250298 -0.065308645 -0.15855737 0.038173337 0.15144162 -0.09945717 -0.115853086
-0.13001019 -0.13750607 -0.14522153 0.10008668 -0.1538058 -0.15051085 0.05591645 0.098995395
-0.16955505 0.15246128 -0.13812675 -0.110924706 -0.008854684 -0.097104885 -0.084431924 0.018539574
0.048478685 -0.17783697 -0.18790632 0.15377174 -0.0919684 -0.022389835 -0.03181278 0.006678317
00000000: db25 0c3e be29 1cbe 8ac0 85bd dd5c 22be
00000010: a55b 1c3d 8313 1b3e 33b0 cbbd 6244 edbd
00000020: 6421 05be 64ce 0cbe f4b4 14be 3ffa cc3d
00000030: 457f 1dbe 841f 1abe a608 653d 19be ca3d
00000040: d79f 2dbe cf1e 1c3e 1971 0dbe 7e2c e3bd
00000050: 3d13 11bc edde c6bd a5ea acbd 4ee0 973c
00000060: 9691 463d e51a 36be 846a 40be 5776 1d3e
00000070: ee59 bcbd e36a b7bc 1e4e 02bd c9d5 da3b

feature_extractor.dense_blocks.0.0.dense_layers.0.point_conv.conv_feats.1.weight f4 [32]
0.72445065 0.83239204 0.9076709 0.5620361 0.78730637 0.8536868 0.8021461 0.7689956
0.9130696 0.8288795 0.71515894 0.87530106 0.7456708 1.1172868 0.92056215 0.47929397
0.6567168 0.86255014 0.81639135 0.82180995 0.87625 0.8322424 0.6379117 0.32164726
0.5562181 0.7556695 0.8881418 0.5369374 0.83367527 0.60352117 0.8271004 0.28365585
00000000: 9975 393f a517 553f 1f5d 683f 99e1 0f3f
00000010: e98c 493f 388b 5a3f 7259 4d3f e5dc 443f
00000020: eebe 693f 7231 543f a814 373f bb13 603f
00000030: 48e4 3e3f 4103 8f3f f6a9 6b3f 0566 f53e
00000040: 981e 283f 16d0 5c3f 06ff 503f 2362 523f
00000050: ec51 603f d70d 553f 2e4e 233f f3ae a43e
00000060: 4f64 0e3f 8e73 413f 435d 633f bb74 093f
00000070: be6b 553f 5d80 1a3f dabc 533f 573b 913e

feature_extractor.dense_blocks.0.0.dense_layers.0.point_conv.conv_feats.1.bias f4 [32]
0.56704754 0.8402557 0.47042793 1.1240262 -0.024464969 0.74495393 0.5664255 0.17146136
0.43458703 0.48652437 0.60903454 0.83592594 0.6889477 -0.5570724 0.22315894 1.1411338
0.89102983 0.43612605 0.41318935 0.6176683 0.07769709 0.6321944 1.0471865 1.3123591
0.903556 0.58287895 0.690835 0.84262204 -0.07906075 0.6041205 0.5199358 1.4501686
00000000: 072a 113f ff1a 573f eedb f03e 17e0 8f3f
00000010: c26a c8bc 4db5 3e3f 4301 113f 9193 2f3e
00000020: 3182 de3e b919 f93e b0e9 1b3f 3eff 553f
00000030: e05e 303f 4c9c 0ebf c783 643e ac10 923f
00000040: 881a 643f ea4b df3e 8e8d d33e 821f 1e3f
00000050: a71f 9f3d 7ed7 213f 350a 863f 62fb a73f
00000060: 724f 673f 8e37 153f 90da 303f 14b6 573f
00000070: 9aea a1bd a4a7 1a3f 831a 053f 209f b93f

feature_extractor.dense_blocks.0.0.dense_layers.0.point_conv.conv_feats.1.running_mean f4 [32]
1.8674401 1.3563821 -0.3584189 -2.3943453 -2.3980079 -1.0835395 -0.41751608 0.46498087
-0.03403025 0.64523727 1.6529408 -0.31030166 -3.6071012 2.4857216 -0.20082362 -0.4560776
-2.0180418 -1.8701429 -0.1212965 -3.2698772 1.0044432 -0.40257376 -0.16021438 0.22900887
0.19970998 -1.0090115 -4.0398173 -1.9043467 -0.43359607 0.0077838204 -0.34018144 -1.2565645
00000000: 4708 ef3f ee9d ad3f af82 b7be f43c 19c0
00000010: f678 19c0 6cb1 8abf abc4 d5be f911 ee3e
00000020: 4e63 0bbd 452e 253f 9093 d33f dcdf 9ebe
00000030: bfda 66c0 1016 1f40 b5a4 4dbe 0183 e9be
00000040: 9927 01c0 d860 efbf 4d6a f8bd ab45 51c0
00000050: 9891 803f 261e cebe 3d0f 24be 4d81 6a3e
00000060: c680 4c3e 4a27 81bf 2f46 81c0 a2c1 f3bf
00000070: 4e00 debe 6b0f ff3b 432c aebe 1bd7 a0bf

feature_extractor.dense_blocks.0.0.dense_layers.0.point_conv.conv_feats.1.running_var f4 [32]
2.3640902 2.952944 3.5632615 3.711865 3.4402692 2.556508 3.1047292 2.365539
4.1021357 4.377415 3.050711 4.990225 2.4327343 0.6218244 3.0336251 2.80674
3.8276155 2.9113634 6.5451684 2.7528703 3.048293 5.7755504 3.1606789 3.750202
3.657486 4.251005 1.9100763 2.0686429 2.9146342 1.6414645 4.7551966 3.0730302
00000000: 414d 1740 09fd 3c40 7a0c 6440 328f 6d40
00000010: 5f2d 5c40 d49d 2340 e2b3 4640 fe64 1740
00000020: b244 8340 c913 8c40 d93e 4340 ecaf 9f40
00000030: ebb1 1b40 e22f 1f3f ea26 4240 a1a1 3340
00000040: a7f7 7440 c753 3a40 0572 d140 072f 3040
00000050: 3c17 4340 4fd1 b840 9048 4a40 4f03 7040
00000060: 4014 6a40 3c08 8840 617d f43f a564 0440
00000070: 5e89 3a40 821b d23f 922a 9840 87ac 4440

feature_extractor.dense_blocks.0.0.dense_layers.0.point_conv.post_conv.0.weight f4 [32, 32, 1, 1]
-0.32607406 -0.08084206 -0.76668143 -0.19104403 0.047676634 -0.1066919 -0.5819652 -0.32493976
-0.27671614 -0.27550113 0.046926457 -0.03905473 -0.03975848 0.1678163 0.21000902 -0.4372787
-0.112404615 0.040028784 -0.23331764 0.029993637 -0.0028203093 -0.7248099 -0.45017767 -0.3690289
-0.27752742 -0.16541801 -0.05437202 -0.6156239 -0.52787787 0.023183564 -0.17730597 0.30118862
-0.2139274 0.16849053 0.096521586 -0.5022746 -0.23337238 -0.21238591 -0.09259398 -0.1720385
-0.31806007 -0.34080985 -0.36130768 -0.02681872 0.09918382 -0.093155414 -0.3060266 -0.7892279
-0.036294527 0.12840283 0.17196167 0.1054082 -0.051255774 -0.39234567 -0.15765995 0.1227983
-0.6432573 0.07143154 -0.12069733 -0.6239685 -0.4889943 -0.61630374 0.08319653 -0.47315142
0.115780935 0.03318528 -0.012990088 -0.49294385 0.029603144 -0.071541674 -0.009404378 -0.117280565
-0.026013186 0.008245152 0.31843555 -0.1821822 -0.14591813 0.54454076 0.21446691 0.0029224171
-0.017571215 -0.002345648 0.015565403 -0.12028408 -0.018640138 0.021328984 -0.012468286 -0.029473282
-0.01661907 0.045107253 -0.52503455 0.024551386 -0.02622603 0.049431168 -0.284728 -0.52039504
-0.014674504 -0.8898445 0.1914988 -0.06849457 -0.10434107 -0.2832389 0.13706808 -0.23726636
-0.69311655 -0.039564848 -0.79386324 -0.4095131 0.09140357 -0.24689874 0.109832086 0.3438441
-0.25864553 -0.10654549 0.23955752 0.17563918 -0.5101727 0.28344053 0.044229016 0.09613609
0.08130135 -0.7770189 -0.1317648 0.051521458 -0.08090598 0.13127486 -0.56753063 0.11881372
0.023848351 -0.34515822 0.2057482 -0.43186292 -0.1542665 -0.52049786 0.16707604 -0.1795364
-0.33372802 0.14316022 -0.35357586 -0.4357312 -0.16362853 -0.03798344 -0.11686911 -0.2967827
-0.22876859 0.032706372 -0.23677224 -0.26719952 0.1519005 -0.15746258 0.10670321 -0.2173816
-0.54374003 0.07756615 0.2617493 -0.25191584 -0.029988447 -0.9161619 0.1410796 -0.50493306
0.04171447 -0.32200536 -0.24478458 0.25256062 -0.0056094876 -0.79372084 0.07377831 -0.2968418
-0.18456398 -0.066401325 -0.12566164 -0.98411983 -0.49920446 -0.1507733 0.04494034 -0.16075043
0.019514356 -0.00039650477 -0.3838292 0.114470564 -0.34429893 0.12193475 0.08834919 -0.07008081
0.18521436 -0.5926148 0.07097168 -0.4979903 0.041213825 -0.6396477 -0.04307636 -0.43122244
-0.31809077 0.32358152 -0.13180102 0.23171838 -0.33086944 0.315713 -0.1348657 -0.32387316
0.35878727 -0.24410754 0.3086652 0.33984113 -0.25031877 0.06902622 -0.19041242 -0.15259631
0.2576121 -0.45741376 -0.22886088 -0.28269815 0.33634257 -0.40175688 -0.06427123 -0.17341891
0.15038547 0.28662005 0.001521091 0.25151336 0.16553749 0.07603723 0.28635842 0.04899583
0.3290827 -0.40764177 -0.08587724 -0.037626397 -0.029385166 0.20687942 0.3103764 0.072821505
-0.37519556 0.31222144 -0.15125869 0.010070504 0.022728102 -0.024698857 0.044553936 0.19831558
-0.17348662 -0.19735353 0.072524644 0.16282924 0.12745161 -0.16816343 -0.89689136 -0.34833026
-0.14843838 -0.026499217 -0.28077757 0.22324905 -0.5884995 -0.07775157 -0.5062041 0.11369671
00000000: 2ef3 a6be 8690 a5bd 3c45 44bf 0ca1 43be
00000010: 9348 433d 4881 dabd acfb 14bf 815e a6be
00000020: bdad 8dbe 7c0e 8dbe f535 403d daf7 1fbd
00000030: cad9 22bd 09d8 2b3e 9b0c 573e fee2 dfbe
00000040: 6434 e6bd 39f5 233d d2ea 6ebe 37b5 f53c
00000050: f0d4 38bb 248d 39bf b07d e6be 5bf1 bcbe
00000060: 1318 8ebe 5763 29be 32b5 5ebd 8799 1dbf
00000070: 0123 07bf 75eb bd3c b28f 35be 6535 9a3e
00000080: c90f 5bbe c888 2c3e 1cad c53d 1195 00bf
00000090: 2bf9 6ebe b17b 59be eaa1 bdbd dc2a 30be
000000a0: c5d8 a2be a17e aebe 52fd b8be efb2 dbbc
000000b0: e320 cb3d 44c8 bebd 85af 9cbe d70a 4abf
000000c0: 92a9 14bd 087c 033e b816 303e 41e0 d73d
000000d0: 93f1 51bd 88e1 c8be 9c71 21be ad7d fb3d
000000e0: 83ac 24bf b34a 923d 2930 f7bd 66bc 1fbf
000000f0: 765d fabe 15c6 1dbf f162 aa3d e740 f2be
00000100: 8e1e ed3d 4aed 073d 61d4 54bc 2363 fcbe
00000110: 4b82 f23c 7184 92bd d214 1abc cb30 f0bd
00000120: 9b19 d5bc ad16 073c fc09 a33e f88d 3abe
00000130: 906b 15be 0667 0b3f 379d 5b3e 0686 3f3b
00000140: 82f1 8fbc 71b9 19bb 0806 7f3c 8057 f6bd
00000150: 34b3 98bc 1fba ae3c c847 4cbc f471 f1bc
00000160: b724 88bc 62c2 383d aa68 06bf fd1f c93c
00000170: f9d7 d6bc 5678 4a3d dec7 91be 9c38 05bf
00000180: 556d 70bc d9cc 63bf 4318 443e e246 8cbd
00000190: c5b0 d5bd b004 91be 935b 0c3e f4f5 72be
000001a0: 1670 31bf c00e 22bd 9f3a 4bbf b3ab d1be
000001b0: cb31 bb3d 06d3 7cbe a5ef e03d 550c b03e
000001c0: 306d 84be 8634 dabd 914e 753e c2da 333e
000001d0: ae9a 02bf 1e1f 913e 7c29 353d 00e3 c43d
000001e0: 5281 a63d b6ea 46bf 5aed 06be 2a08 533d
000001f0: 09b2 a5bd eb6c 063e b049 11bf 9c54 f33d
00000200: 9e5d c33c 94b8 b0be a8af 523e 231d ddbe
00000210: 0af8 1dbe 593f 05bf fb15 2b3e 64d8 37be
00000220: 66de aabe 9898 123e e507 b5be 2918 dfbe
00000230: 3d8e 27be 8694 1bbd 1259 efbd e7f3 97be
00000240: 5042 6abe 1ef7 053d 6c74 72be 60ce 88be
00000250: ce8b 1b3e df3d 21be 3687 da3d 4899 5ebe
00000260: 8c32 0bbf 00db 9e3d 0104 863e 1dfb 80be
00000270: 55aa f5bc 9689 6abf 2c77 103e 4b43 01bf
00000280: cbdc 2a3d e3dd a4be cfa8 7abe a04f 813e
00000290: cbcf b7bb 4a31 4bbf 1519 973d a6fb 97be
000002a0: 57fe 3cbe 6bfd 87bd 72ad 00be 47ef 7bbf
000002b0: ba97 ffbe 5164 1abe 5d13 383d c39b 24be
000002c0: 92dc 9f3c f8e1 cfb9 4385 c4be 8b6f ea3d
000002d0: f347 b0be edb8 f93d 6cf0 b43d 8786 8fbd
000002e0: d5a8 3d3e 9bb5 17bf 9a59 913d 96f8 febe
000002f0: d4cf 283d f4bf 23bf d670 30bd 30c9 dcbe
00000300: cbdc a2be 7aac a53e d9f6 06be 9547 6d3e
00000310: b867 a9be 22a5 a13e 3c1a 0abe b4d2 a5be
00000320: f7b2 b73e 54f7 79be 5d09 9e3e a8ff ad3e
00000330: c829 80be 9e5d 8d3d 79fb 42be 3542 1cbe
00000340: bce5 833e 2332 eabe 825a 6abe d0bd 90be
00000350: 1835 ac3e 14b3 cdbe a2a0 83bd ba94 31be
00000360: a6fe 193e ddbf 923e 585f c73a 5cc6 803e
00000370: a982 293e 68b9 9b3d 929d 923e daaf 483d
00000380: 877d a83e 6cb6 d0be 68e0 afbd 231e 1abd
00000390: 29b9 f0bc 33d8 533e a8e9 9e3e 7123 953d
000003a0: a219 c0be 7ddb 9f3e 8fe3 1abe c1fe 243c
000003b0: 4930 ba3c 4255 cabc 307e 363d 3d13 4b3e
000003c0: 7aa6 31be 0b17 4abe cd87 943d b5bc 263e
000003d0: ad82 023e 0933 2cbe ac9a 65bf 5858 b2be
000003e0: 3b00 18be e314 d9bc 14c2 8fbe 669b 643e
000003f0: e7a7 16bf 373c 9fbd 9896 01bf d2d9 e83d

feature_extractor.dense_blocks.0.0.dense_layers.0.point_conv.post_conv.0.bias f4 [32]
-0.021927005 -0.039882597 0.20291714 0.062564425 -0.033263136 0.055905383 0.111773804 0.0139184985
0.15121426 0.13819498 -0.09691718 -0.0023277516 -0.1311674 0.054666016 -0.19283244 -0.09866989
0.2528752 0.09509175 0.19339566 -0.057680458 0.12183607 -0.169072 -0.105852075 -0.04308026
-0.1515362 -0.09007083 0.03957556 -0.13254124 -0.13708438 -0.0589063 0.08718276 -0.14452101
00000000: 43a0 b3bc ef5b 23bd 83c9 4f3e c721 803d
00000010: ed3e 08bd 0bfd 643d aae9 e43d 6a0a 643c
00000020: e9d7 1a3e fc82 0d3e 847c c6bd 318d 18bb
00000030: bf50 06be 79e9 5f3d de75 45be 7013 cabd
00000040: dc78 813e 77bf c23d 8309 463e 5842 6cbd
00000050: 3185 f93d 3621 2dbe f9c8 d8bd ed74 30bd
00000060: 4e2c 1bbe 0e77 b8bd fb19 223d e4b8 07be
00000070: d95f 0cbe bc47 71bd e08c b23d 51fd 13be

feature_extractor.dense_blocks.0.0.dense_layers.0.point_conv.post_conv.1.weight f4 [32]
0.9113755 0.7218053 0.9411102 0.5836078 0.69925416 0.746087 0.78109795 0.5932987
0.6060773 0.80663663 0.74743044 0.84950733 0.8056022 0.6327091 0.77876896 0.67283934
0.8878324 0.59906965 0.5367021 0.609655 0.41033447 0.71121806 0.67557174 0.8095228
0.8138951 0.6198516 0.8107872 0.7142948 0.44869268 0.6477491 0.7835393 0.5575951
00000000: e84f 693f 3bc8 383f 99ec 703f 5267 153f
00000010: 5202 333f 8fff 3e3f 09f6 473f 6ce2 173f
00000020: e227 1b3f bd7f 4e3f 9a57 3f3f 5079 593f
00000030: f23b 4e3f 39f9 213f 675d 473f 333f 2c3f
00000040: fc48 633f a15c 193f 4f65 093f 5a12 1c3f
00000050: 5c17 d23e 6312 363f 45f2 2c3f e33c 4f3f
00000060: 6e5b 503f 98ae 1e3f c08f 4f3f 06dc 363f
00000070: 0cbb e53e e3d2 253f 0896 483f 8dbe 0e3f

feature_extractor.dense_blocks.0.0.dense_layers.0.point_conv.post_conv.1.bias f4 [32]
-0.35215464 -0.28055823 -0.97136444 -0.26279804 -0.3052434 -0.22738858 0.23338571 -0.08803457
-0.21812662 -0.22122629 -0.28221536 -0.03614135 -0.24517375 -0.08193281 -0.16849567 -0.14093739
-0.23215418 -0.16380602 -0.14389694 -0.17284128 -0.18210915 -0.088104 -0.20277055 -0.9715842
-0.48549616 -0.31273568 -0.2178181 -0.23149687 -0.15660712 -0.15789343 -0.16410957 -0.10531435
00000000: 9d4d b4be 54a5 8fbe 57ab 78bf 778d 86be
00000010: dd48 9cbe 8dd8 68be aafc 6e3e 784b b4bd
00000020: 965c 5fbe 2589 62be 887e 90be f408 14bd
00000030: d40e 7bbe 64cc a7bd 218a 2cbe e451 10be
00000040: d3b9 6dbe c4bc 27be b859 13be 4efd 30be
00000050: d27a 3abe df6f b4bd 15a3 4fbe beb9 78bf
00000060: f492 f8be e41e a0be b50b 5fbe 840d 6dbe
00000070: 9e5d 20be d1ae 21be 570c 28be 0daf d7bd

feature_extractor.dense_blocks.0.0.dense_layers.0.point_conv.post_conv.1.running_mean f4 [32]
-2.320123 -2.7698746 -0.9804607 -1.2508929 -2.7172656 -2.3545177 0.6337073 -1.1232305
-1.5339574 -2.300253 -1.2976314 -0.6583199 -2.3585825 -0.27980456 -2.4981256 -0.6485645
-2.3932369 -2.50966 -0.56011355 -2.9905326 0.41510314 -1.3384581 -2.8507433 -1.112936
-2.4301748 -3.0653334 -2.2939715 -1.8715712 -0.80982435 -2.378245 -2.824212 -1.1939042
00000000: e57c 14c0 a045 31c0 79ff 7abf 421d a0bf
00000010: aee7 2dc0 6bb0 16c0 a43a 223f 04c6 8fbf
00000020: b758 c4bf 5837 13c0 c918 a6bf a787 28bf
00000030: 04f3 16c0 8b42 8fbe 4ae1 1fc0 5308 26bf
00000040: cb2a 19c0 459e 20c0 9a63 0fbf e364 3fc0
00000050: 6688 d43e 9852 abbf 9472 36c0 b074 8ebf
00000060: fc87 1bc0 6c2e 44c0 6ed0 12c0 a58f efbf
00000070: a650 4fbf 2b35 18c0 e4bf 34c0 dad1 98bf

feature_extractor.dense_blocks.0.0.dense_layers.0.point_conv.post_conv.1.running_var f4 [32]
3.3133402 3.5263462 1.054783 3.2006466 3.3707843 4.8675566 1.5726042 3.7962334
3.7256732 3.3238661 2.7555957 1.8499446 5.080377 4.373018 5.4219384 4.5411706
4.6239853 3.700168 3.8024435 1.9524127 2.1223605 4.280248 4.401397 1.2021059
3.0017896 1.8903438 6.207682 2.7449367 1.9367098 5.3322053 5.3709536 3.5768764
00000000: c40d 5440 a8af 6140 2103 873f 65d7 4c40
00000010: eeba 5740 06c3 9b40 184b c93f 7df5 7240
00000020: 6e71 6e40 39ba 5440 ae5b 3040 fcca ec3f
00000030: 7392 a240 c3ef 8b40 8580 ad40 4551 9140
00000040: b0f7 9340 8dcf 6c40 3c5b 7340 a9e8 f93f
00000050: c1d4 0740 cbf7 8840 3fd8 8c40 9bde 993f
00000060: 521d 4040 c9f6 f13f 55a5 c640 0bad 2f40
00000070: 1be6 f73f 6da1 aa40 dade ab40 8beb 6440

feature_extractor.dense_blocks.0.0.dense_layers.1.conv_bottle.0.weight f4 [32, 64, 1]
-0.09884553 0.6150633 -0.001461577 -0.09713077 -0.5182556 0.14321427 0.18112758 -0.39816743
0.26709896 0.42449126 0.1572041 -0.090687685 0.14978461 -0.3330624 0.14681317 -0.33286658
-0.3303415 -0.02727393 0.23563638 0.15976802 0.16713591 -0.3332887 -0.09754594 0.0872408
-0.09934409 0.42441 0.3943199 0.18175846 -0.090802066 0.050403252 0.2321214 0.27013156
0.35765448 0.1122093 0.16732162 0.057074312 -0.13460648 -0.05619517 0.014436531 -0.4650439
0.28513798 -0.71507365 -0.17366636 -0.021117358 -0.9158701 0.11890336 0.16073133 0.11402508
0.11411359 0.097874776 0.034650158 0.06743084 0.034771834 0.081246115 0.19775258 -0.06863234
-0.11143434 0.32766476 0.07368717 0.254527 0.042573534 -0.14493203 0.0917101 0.07932106
0.11975032 -0.06480913 0.14074449 0.08390432 0.16573398 -0.47601476 0.5065818 0.077805355
0.0098918285 0.030109853 -0.29218972 0.13803425 -0.09905048 0.6228277 0.36656913 0.012693703
0.24743417 0.2910672 0.5484667 -0.07789947 -0.03681926 -0.020739077 0.21024504 -0.0693476
-0.24867086 0.15713471 0.39730418 0.07902986 0.10731123 -0.04508768 -0.2920368 0.014138546
-0.02196798 0.410044 0.30536756 0.1923993 0.049549688 0.105062075 -0.33444673 0.17083289
0.0929303 -0.007020721 0.12745292 -0.47171393 -0.07365838 -0.02216533 0.14431415 0.071381025
-0.029204337 0.18715973 0.06264612 0.033532534 0.48949456 -0.06321441 0.16986282 0.293557
-0.15308596 0.17318012 -0.12778686 -0.06334101 -0.031542808 0.33349046 -0.15788236 -0.12857835
-0.22918463 0.1802644 -0.14855881 -0.109653756 -0.09538473 -0.14744216 0.36010844 0.15758532
-0.049984187 0.13350788 0.22073822 -0.024599822 -0.21748632 0.21989642 -0.046309378 0.08095826
0.2909119 -0.059753872 0.35014567 -0.045652904 0.16501938 0.1061426 -0.028775359 0.37345114
-0.13854909 -0.17084235 -0.010794061 -0.3031137 0.32813746 0.036188267 0.19256759 0.2038434
0.33417034 0.12841403 -0.06642523 -0.09716448 -0.011114854 -0.13079637 -0.4524908 -0.20625265
-0.30347675 0.054688606 -0.24864924 -0.6655758 -0.074364945 -0.32761693 -0.22710103 -0.014110384
0.0373893 0.3740288 5.620763e-05 0.20753269 0.25733468 -0.006299292 0.093136765 -0.20060857
0.095520444 0.28352478 -0.25624543 -0.00016571004 0.14123428 0.30070668 0.27098507 -0.27885
0.116228655 -0.13550974 -0.34950748 0.16434734 0.08687165 -0.14669628 -0.22300461 -0.011564522
0.06945193 -0.22179995 0.046223562 -0.059543237 0.082525924 0.12162344 -0.1309506 -0.009467803
0.18013315 -0.048933506 0.28102913 0.08116392 0.27335715 0.08252385 0.058847748 0.13473111
0.1075182 -0.1005661 0.013770956 -0.08691827 0.10864281 0.031840216 0.089559354 0.15592211
0.0711469 0.13786012 -0.078396745 -0.029169193 -0.3295319 0.044590488 0.010675891 0.41350755
-0.027693179 -0.5227552 0.0046689454 -0.13746117 0.07209651 0.35481268 -0.06695783 0.32092363
-0.255144 -0.13231818 0.36001784 -0.8370629 0.4139354 0.24798538 0.030810475 0.118805856
0.08527882 -0.28018245 -0.4883303 -0.20677993 0.009545063 0.082662575 -0.22379217 0.11561987
00000000: 866f cabd ca74 1d3f 6392 bfba 7fec c6bd
00000010: 66ac 04bf c3a6 123e 8279 393e 9adc cbbe
00000020: 32c1 883e eb56 d93e 1dfa 203e 77ba b9bd
00000030: 2361 193e 2887 aabe 3156 163e 7d6d aabe
00000040: 8522 a9be 946d dfbc aa4a 713e 3a9a 233e
00000050: ad25 2b3e d1a4 aabe 2ac6 c7bd 4eab b23d
00000060: ea74 cbbd 444c d93e 4ce4 c93e e41e 3a3e
00000070: 6ff6 b9bd a473 4e3d 3bb1 6d3e af4e 8a3e
00000080: 7d1e b73e fdcd e53d 5c56 2b3e c1c6 693d
00000090: 48d6 09be e82c 66bd 3387 6c3c 3c1a eebe
000000a0: 9bfd 913e 110f 37bf 98d5 31be 4ffe acbc
000000b0: 7676 6abf 9b83 f33d c196 243e fb85 e93d
000000c0: 63b4 e93d 9272 c83d 53ed 0d3d 2e19 8a3d
000000d0: e96c 0e3d 5d64 a63d a77f 4a3e 1d8f 8cbd
000000e0: b037 e4bd adc3 a73e 4de9 963d 5d51 823e
000000f0: 9661 2e3d 1069 14be 81d2 bb3d 1473 a23d
00000100: a83f f53d a6ba 84bd 531f 103e 07d6 ab3d
00000110: 2bb6 293e 35b8 f3be 58af 013f 6a58 9f3d
00000120: 5611 223c f0a8 f63c e499 95be da58 0d3e
00000130: fada cabd a371 1f3f f3ae bb3e 40f9 4f3c
00000140: 625f 7d3e c306 953e 5068 0c3f c289 9fbd
00000150: cbcf 16bd ffe4 a9bc 7a4a 573e 1d06 8ebd
00000160: 93a3 7ebe ece7 203e 746b cb3e 68da a13d
00000170: fdc5 db3d dcad 38bd d985 95be 5ca5 673c
00000180: 31f6 b3bc 4af1 d13e 2359 9c3e 5204 453e
00000190: 9df4 4a3d c92a d73d 9a3c abbe d1ee 2e3e
000001a0: 3e52 be3d 140e e6bb 0583 023e 7d84 f1be
000001b0: 34da 96bd 1194 b5bc 17c7 133e 3730 923d
000001c0: ef3d efbc cda6 3f3e 9c4c 803d 6959 093d
000001d0: 089f fa3e 8e76 81bd 85f0 2d3e 1a4d 963e
000001e0: 91c2 1cbe 2156 313e 8fda 02be eeb8 81bd
000001f0: 0833 01bd 43bf aa3e eaab 21be 0baa 03be
00000200: 60af 6abe 3b97 383e cd1f 18be 2692 e0bd
00000210: 1259 c3bd 14fb 16be 2260 b83e 0c5e 213e
00000220: 38bc 4cbd 4ab6 083e 3309 623e 9185 c9bc
00000230: bcb4 5ebe 872c 613e e7ae 3dbd 72cd a53d
00000240: 68f2 943e 7ac0 74bd 4b46 b33e 8afe 3abd
00000250: d7fa 283e 4b61 d93d 4dba ebbc fd34 bf3e
00000260: d0df 0dbe 4cf1 2ebe 93d9 30bc b831 9bbe
00000270: a201 a83e 263a 143d 7030 453e 53bc 503e
00000280: 6018 ab3e f87e 033e f309 88bd 2cfe c6bd
00000290: 141b 36bc 7cef 05be e0ac e7be e533 53be
000002a0: 4e61 9bbe 2901 603d e89d 7ebe 2d63 2abf
000002b0: a64c 98bd 68bd a7be 2c8d 68be 3d2f 67bc
000002c0: 8625 193d b480 bf3e 7cc0 6b38 7383 543e
000002d0: 5fc1 833e 4b6a cebb 7dbe be3d 556c 4dbe
000002e0: 39a0 c33d 292a 913e 9a32 83be 73c2 2db9
000002f0: b89f 103e 3af6 993e 8ebe 8a3e 6dc5 8ebe
00000300: 4a09 ee3d 11c3 0abe a5f2 b2be ab4a 283e
00000310: c3e9 b13d 8d37 16be 525b 64be 1f79 3dbc
00000320: d03c 8e3d 871f 63be eb54 3d3d 9ce3 73bd
00000330: 5a03 a93d b615 f93d ea17 06be d81e 1bbc
00000340: d374 383e 806e 48bd 0de3 8f3e 4539 a63d
00000350: 78f5 8b3e 4402 a93d 560a 713d f4f6 093e
00000360: 8132 dc3d 99f5 cdbd 939f 613c 3502 b2bd
00000370: 1f80 de3d e36a 023d e56a b73d 0caa 1f3e
00000380: 77b5 913d 342b 0d3e 798e a0bd 3bf4 eebc
00000390: 68b8 a8be 84a4 363d efe9 2e3c 43b7 d33e
000003a0: cedc e2bc 49d3 05bf f4fd 983b 9fc2 0cbe
000003b0: 56a7 933d 02aa b53e 3021 89bd 1a50 a43e
000003c0: 3ca2 82be 6b7e 07be 4254 b83e c149 56bf
000003d0: 57ef d33e e1ef 7d3e 4066 fc3c 7c50 f33d
000003e0: a9a6 ae3d 1374 8fbe 6e06 fabe 1ebe 53be
000003f0: e562 1c3c ff4a a93d c629 65be 1cca ec3d

feature_extractor.dense_blocks.0.0.dense_layers.1.conv_bottle.0.bias f4 [32]
-0.10350903 0.031170825 0.073839955 -0.090909146 0.035510715 -0.069949165 0.08961339 0.046678804
-0.1257301 0.019996451 -0.11300162 0.03883856 -0.054110426 0.04647042 -0.11147864 -0.01996302
-0.08204704 -0.059563927 0.11548064 -0.012568358 0.028292745 0.059060644 -0.02504134 -0.087657794
-0.018445032 0.094619654 0.083896704 -0.079410955 0.015797006 0.09604299 -0.004310777 0.043615628
00000000: 8bfc d3bd f559 ff3c 6739 973d 932e babd
00000010: af73 113d 8241 8fbd 3a87 b73d 4632 3f3d
00000020: 64bf 00be 99cf a33c 656d e7bd 2f15 1f3d
00000030: e5a2 5dbd c457 3e3d ea4e e4bd 7d89 a3bc
00000040: 4708 a8bd 4ef9 73bd 1d81 ec3d 84eb 4dbc
00000050: 30c6 e73c 93e9 713d 7f23 cdbc ee85 b3bd
00000060: 091a 97bc f3c7 c13d 09d2 ab3d 36a2 a2bd
00000070: b968 813c 30b2 c43d 6b41 8dbb 4da6 323d

feature_extractor.dense_blocks.0.0.dense_layers.1.conv_bottle.1.weight f4 [32]
0.9264249 0.89536524 0.8636273 0.83397114 0.957088 0.9005068 1.0112271 0.916148
0.7648566 1.0595218 0.68853766 0.67905295 1.0151826 0.7769663 0.7414928 0.9650325
0.6821837 0.56525135 0.80159736 1.0801573 0.84097093 0.8376374 1.0842428 0.81585354
0.9794909 0.92501116 0.8810341 0.5340336 0.81398475 0.9460957 1.0528054 0.72314405
00000000: 2f2a 6d3f a836 653f ae16 5d3f 227f 553f
00000010: b803 753f 9d87 663f e46f 813f ad88 6a3f
00000020: a4cd 433f 699e 873f 0144 303f 6ad6 2d3f
00000030: 81f1 813f 43e7 463f 79d2 3d3f 5f0c 773f
00000040: 97a3 2e3f 50b4 103f 7c35 4d3f 9842 8a3f
00000050: df49 573f 686f 563f 78c8 8a3f c7db 503f
00000060: eabf 7a3f 88cd 6c3f 738b 613f 6db6 083f
00000070: 4e61 503f 5433 723f 54c2 863f f81f 393f
